name: "VGGNET_TEXT_scene_text_512x512_deploy"
input: "data"
input_shape {
  dim: 1
  dim: 3
  dim: 512
  dim: 512
}
layer {
  name: "conv1_1"
  type: "Convolution"
  bottom: "data"
  top: "conv1_1"
  param {
    lr_mult: 0.0
    decay_mult: 0.0
  }
  param {
    lr_mult: 0.0
    decay_mult: 0.0
  }
  convolution_param {
    num_output: 64
    pad: 1
    kernel_size: 3
    weight_filler {
      type: "xavier"
    }
    bias_filler {
      type: "constant"
      value: 0.0
    }
  }
}
layer {
  name: "relu1_1"
  type: "ReLU"
  bottom: "conv1_1"
  top: "conv1_1"
}
layer {
  name: "conv1_2"
  type: "Convolution"
  bottom: "conv1_1"
  top: "conv1_2"
  param {
    lr_mult: 0.0
    decay_mult: 0.0
  }
  param {
    lr_mult: 0.0
    decay_mult: 0.0
  }
  convolution_param {
    num_output: 64
    pad: 1
    kernel_size: 3
    weight_filler {
      type: "xavier"
    }
    bias_filler {
      type: "constant"
      value: 0.0
    }
  }
}
layer {
  name: "relu1_2"
  type: "ReLU"
  bottom: "conv1_2"
  top: "conv1_2"
}
layer {
  name: "pool1"
  type: "Pooling"
  bottom: "conv1_2"
  top: "pool1"
  pooling_param {
    pool: MAX
    kernel_size: 2
    stride: 2
  }
}
layer {
  name: "conv2_1"
  type: "Convolution"
  bottom: "pool1"
  top: "conv2_1"
  param {
    lr_mult: 0.0
    decay_mult: 0.0
  }
  param {
    lr_mult: 0.0
    decay_mult: 0.0
  }
  convolution_param {
    num_output: 128
    pad: 1
    kernel_size: 3
    weight_filler {
      type: "xavier"
    }
    bias_filler {
      type: "constant"
      value: 0.0
    }
  }
}
layer {
  name: "relu2_1"
  type: "ReLU"
  bottom: "conv2_1"
  top: "conv2_1"
}
layer {
  name: "conv2_2"
  type: "Convolution"
  bottom: "conv2_1"
  top: "conv2_2"
  param {
    lr_mult: 0.0
    decay_mult: 0.0
  }
  param {
    lr_mult: 0.0
    decay_mult: 0.0
  }
  convolution_param {
    num_output: 128
    pad: 1
    kernel_size: 3
    weight_filler {
      type: "xavier"
    }
    bias_filler {
      type: "constant"
      value: 0.0
    }
  }
}
layer {
  name: "relu2_2"
  type: "ReLU"
  bottom: "conv2_2"
  top: "conv2_2"
}
layer {
  name: "pool2"
  type: "Pooling"
  bottom: "conv2_2"
  top: "pool2"
  pooling_param {
    pool: MAX
    kernel_size: 2
    stride: 2
  }
}
layer {
  name: "conv3_1"
  type: "Convolution"
  bottom: "pool2"
  top: "conv3_1"
  param {
    lr_mult: 1.0
    decay_mult: 1.0
  }
  param {
    lr_mult: 2.0
    decay_mult: 0.0
  }
  convolution_param {
    num_output: 256
    pad: 1
    kernel_size: 3
    weight_filler {
      type: "xavier"
    }
    bias_filler {
      type: "constant"
      value: 0.0
    }
  }
}
layer {
  name: "relu3_1"
  type: "ReLU"
  bottom: "conv3_1"
  top: "conv3_1"
}
layer {
  name: "conv3_2"
  type: "Convolution"
  bottom: "conv3_1"
  top: "conv3_2"
  param {
    lr_mult: 1.0
    decay_mult: 1.0
  }
  param {
    lr_mult: 2.0
    decay_mult: 0.0
  }
  convolution_param {
    num_output: 256
    pad: 1
    kernel_size: 3
    weight_filler {
      type: "xavier"
    }
    bias_filler {
      type: "constant"
      value: 0.0
    }
  }
}
layer {
  name: "relu3_2"
  type: "ReLU"
  bottom: "conv3_2"
  top: "conv3_2"
}
layer {
  name: "conv3_3"
  type: "Convolution"
  bottom: "conv3_2"
  top: "conv3_3"
  param {
    lr_mult: 1.0
    decay_mult: 1.0
  }
  param {
    lr_mult: 2.0
    decay_mult: 0.0
  }
  convolution_param {
    num_output: 256
    pad: 1
    kernel_size: 3
    weight_filler {
      type: "xavier"
    }
    bias_filler {
      type: "constant"
      value: 0.0
    }
  }
}
layer {
  name: "relu3_3"
  type: "ReLU"
  bottom: "conv3_3"
  top: "conv3_3"
}
layer {
  name: "pool3"
  type: "Pooling"
  bottom: "conv3_3"
  top: "pool3"
  pooling_param {
    pool: MAX
    kernel_size: 2
    stride: 2
  }
}
layer {
  name: "conv4_1"
  type: "Convolution"
  bottom: "pool3"
  top: "conv4_1"
  param {
    lr_mult: 1.0
    decay_mult: 1.0
  }
  param {
    lr_mult: 2.0
    decay_mult: 0.0
  }
  convolution_param {
    num_output: 512
    pad: 1
    kernel_size: 3
    weight_filler {
      type: "xavier"
    }
    bias_filler {
      type: "constant"
      value: 0.0
    }
  }
}
layer {
  name: "relu4_1"
  type: "ReLU"
  bottom: "conv4_1"
  top: "conv4_1"
}
layer {
  name: "conv4_2"
  type: "Convolution"
  bottom: "conv4_1"
  top: "conv4_2"
  param {
    lr_mult: 1.0
    decay_mult: 1.0
  }
  param {
    lr_mult: 2.0
    decay_mult: 0.0
  }
  convolution_param {
    num_output: 512
    pad: 1
    kernel_size: 3
    weight_filler {
      type: "xavier"
    }
    bias_filler {
      type: "constant"
      value: 0.0
    }
  }
}
layer {
  name: "relu4_2"
  type: "ReLU"
  bottom: "conv4_2"
  top: "conv4_2"
}
layer {
  name: "conv4_3"
  type: "Convolution"
  bottom: "conv4_2"
  top: "conv4_3"
  param {
    lr_mult: 1.0
    decay_mult: 1.0
  }
  param {
    lr_mult: 2.0
    decay_mult: 0.0
  }
  convolution_param {
    num_output: 512
    pad: 1
    kernel_size: 3
    weight_filler {
      type: "xavier"
    }
    bias_filler {
      type: "constant"
      value: 0.0
    }
  }
}
layer {
  name: "relu4_3"
  type: "ReLU"
  bottom: "conv4_3"
  top: "conv4_3"
}
layer {
  name: "pool4"
  type: "Pooling"
  bottom: "conv4_3"
  top: "pool4"
  pooling_param {
    pool: MAX
    kernel_size: 2
    stride: 2
  }
}
layer {
  name: "conv5_1"
  type: "Convolution"
  bottom: "pool4"
  top: "conv5_1"
  param {
    lr_mult: 1.0
    decay_mult: 1.0
  }
  param {
    lr_mult: 2.0
    decay_mult: 0.0
  }
  convolution_param {
    num_output: 512
    pad: 1
    kernel_size: 3
    weight_filler {
      type: "xavier"
    }
    bias_filler {
      type: "constant"
      value: 0.0
    }
    dilation: 1
  }
}
layer {
  name: "relu5_1"
  type: "ReLU"
  bottom: "conv5_1"
  top: "conv5_1"
}
layer {
  name: "conv5_2"
  type: "Convolution"
  bottom: "conv5_1"
  top: "conv5_2"
  param {
    lr_mult: 1.0
    decay_mult: 1.0
  }
  param {
    lr_mult: 2.0
    decay_mult: 0.0
  }
  convolution_param {
    num_output: 512
    pad: 1
    kernel_size: 3
    weight_filler {
      type: "xavier"
    }
    bias_filler {
      type: "constant"
      value: 0.0
    }
    dilation: 1
  }
}
layer {
  name: "relu5_2"
  type: "ReLU"
  bottom: "conv5_2"
  top: "conv5_2"
}
layer {
  name: "conv5_3"
  type: "Convolution"
  bottom: "conv5_2"
  top: "conv5_3"
  param {
    lr_mult: 1.0
    decay_mult: 1.0
  }
  param {
    lr_mult: 2.0
    decay_mult: 0.0
  }
  convolution_param {
    num_output: 512
    pad: 1
    kernel_size: 3
    weight_filler {
      type: "xavier"
    }
    bias_filler {
      type: "constant"
      value: 0.0
    }
    dilation: 1
  }
}
layer {
  name: "relu5_3"
  type: "ReLU"
  bottom: "conv5_3"
  top: "conv5_3"
}
layer {
  name: "pool5"
  type: "Pooling"
  bottom: "conv5_3"
  top: "pool5"
  pooling_param {
    pool: MAX
    kernel_size: 3
    stride: 1
    pad: 1
  }
}
layer {
  name: "fc6"
  type: "Convolution"
  bottom: "pool5"
  top: "fc6"
  param {
    lr_mult: 1.0
    decay_mult: 1.0
  }
  param {
    lr_mult: 2.0
    decay_mult: 0.0
  }
  convolution_param {
    num_output: 1024
    pad: 6
    kernel_size: 3
    weight_filler {
      type: "xavier"
    }
    bias_filler {
      type: "constant"
      value: 0.0
    }
    dilation: 6
  }
}
layer {
  name: "relu6"
  type: "ReLU"
  bottom: "fc6"
  top: "fc6"
}
layer {
  name: "fc7"
  type: "Convolution"
  bottom: "fc6"
  top: "fc7"
  param {
    lr_mult: 1.0
    decay_mult: 1.0
  }
  param {
    lr_mult: 2.0
    decay_mult: 0.0
  }
  convolution_param {
    num_output: 1024
    kernel_size: 1
    weight_filler {
      type: "xavier"
    }
    bias_filler {
      type: "constant"
      value: 0.0
    }
  }
}
layer {
  name: "relu7"
  type: "ReLU"
  bottom: "fc7"
  top: "fc7"
}
layer {
  name: "Conv6_1"
  type: "Convolution"
  bottom: "fc7"
  top: "Conv6_1"
  param {
    lr_mult: 1.0
    decay_mult: 1.0
  }
  param {
    lr_mult: 2.0
    decay_mult: 0.0
  }
  convolution_param {
    num_output: 256
    pad: 1
    kernel_size: 3
    stride: 2
    weight_filler {
      type: "xavier"
    }
    bias_filler {
      type: "constant"
      value: 0.0
    }
  }
}
layer {
  name: "Conv6_1_relu"
  type: "ReLU"
  bottom: "Conv6_1"
  top: "Conv6_1"
}
layer {
  name: "Conv6_2_reduction"
  type: "Convolution"
  bottom: "Conv6_1"
  top: "Conv6_2_reduction"
  param {
    lr_mult: 1.0
    decay_mult: 1.0
  }
  param {
    lr_mult: 2.0
    decay_mult: 0.0
  }
  convolution_param {
    num_output: 128
    pad: 0
    kernel_size: 1
    stride: 1
    weight_filler {
      type: "xavier"
    }
    bias_filler {
      type: "constant"
      value: 0.0
    }
  }
}
layer {
  name: "Conv6_2_reduction_relu"
  type: "ReLU"
  bottom: "Conv6_2_reduction"
  top: "Conv6_2_reduction"
}
layer {
  name: "Conv6_2_3x3"
  type: "Convolution"
  bottom: "Conv6_1"
  top: "Conv6_2_3x3"
  param {
    lr_mult: 1.0
    decay_mult: 1.0
  }
  param {
    lr_mult: 2.0
    decay_mult: 0.0
  }
  convolution_param {
    num_output: 128
    pad: 2
    kernel_size: 3
    stride: 1
    weight_filler {
      type: "xavier"
    }
    bias_filler {
      type: "constant"
      value: 0.0
    }
    dilation: 2
  }
}
layer {
  name: "Conv6_2_3x3_relu"
  type: "ReLU"
  bottom: "Conv6_2_3x3"
  top: "Conv6_2_3x3"
}
layer {
  name: "Conv6_2_3x3_pool"
  type: "Pooling"
  bottom: "Conv6_1"
  top: "Conv6_2_3x3_pool"
  pooling_param {
    pool: MAX
    kernel_size: 3
    stride: 1
    pad: 1
  }
}
layer {
  name: "Conv6_2_1x1"
  type: "Convolution"
  bottom: "Conv6_2_3x3_pool"
  top: "Conv6_2_1x1"
  param {
    lr_mult: 1.0
    decay_mult: 1.0
  }
  param {
    lr_mult: 2.0
    decay_mult: 0.0
  }
  convolution_param {
    num_output: 128
    pad: 0
    kernel_size: 1
    stride: 1
    weight_filler {
      type: "xavier"
    }
    bias_filler {
      type: "constant"
      value: 0.0
    }
  }
}
layer {
  name: "Conv6_2_1x1_relu"
  type: "ReLU"
  bottom: "Conv6_2_1x1"
  top: "Conv6_2_1x1"
}
layer {
  name: "Conv6_2_1x5"
  type: "Convolution"
  bottom: "Conv6_1"
  top: "Conv6_2_1x5"
  param {
    lr_mult: 1.0
    decay_mult: 1.0
  }
  param {
    lr_mult: 2.0
    decay_mult: 0.0
  }
  convolution_param {
    num_output: 128
    weight_filler {
      type: "xavier"
    }
    bias_filler {
      type: "constant"
      value: 0.0
    }
    pad_h: 0
    pad_w: 2
    kernel_h: 1
    kernel_w: 5
    stride_h: 1
    stride_w: 1
  }
}
layer {
  name: "Conv6_2_1x5_relu"
  type: "ReLU"
  bottom: "Conv6_2_1x5"
  top: "Conv6_2_1x5"
}
layer {
  name: "Conv6_2_5x1"
  type: "Convolution"
  bottom: "Conv6_2_1x5"
  top: "Conv6_2_5x1"
  param {
    lr_mult: 1.0
    decay_mult: 1.0
  }
  param {
    lr_mult: 2.0
    decay_mult: 0.0
  }
  convolution_param {
    num_output: 128
    weight_filler {
      type: "xavier"
    }
    bias_filler {
      type: "constant"
      value: 0.0
    }
    pad_h: 2
    pad_w: 0
    kernel_h: 5
    kernel_w: 1
    stride_h: 1
    stride_w: 1
  }
}
layer {
  name: "Conv6_2_5x1_relu"
  type: "ReLU"
  bottom: "Conv6_2_5x1"
  top: "Conv6_2_5x1"
}
layer {
  name: "Conv6_2"
  type: "Concat"
  bottom: "Conv6_2_reduction"
  bottom: "Conv6_2_3x3"
  bottom: "Conv6_2_1x1"
  bottom: "Conv6_2_5x1"
  top: "Conv6_2"
}
layer {
  name: "Conv7_1"
  type: "Convolution"
  bottom: "Conv6_2"
  top: "Conv7_1"
  param {
    lr_mult: 1.0
    decay_mult: 1.0
  }
  param {
    lr_mult: 2.0
    decay_mult: 0.0
  }
  convolution_param {
    num_output: 256
    pad: 1
    kernel_size: 3
    stride: 2
    weight_filler {
      type: "xavier"
    }
    bias_filler {
      type: "constant"
      value: 0.0
    }
  }
}
layer {
  name: "Conv7_1_relu"
  type: "ReLU"
  bottom: "Conv7_1"
  top: "Conv7_1"
}
layer {
  name: "Conv7_2_reduction"
  type: "Convolution"
  bottom: "Conv7_1"
  top: "Conv7_2_reduction"
  param {
    lr_mult: 1.0
    decay_mult: 1.0
  }
  param {
    lr_mult: 2.0
    decay_mult: 0.0
  }
  convolution_param {
    num_output: 128
    pad: 0
    kernel_size: 1
    stride: 1
    weight_filler {
      type: "xavier"
    }
    bias_filler {
      type: "constant"
      value: 0.0
    }
  }
}
layer {
  name: "Conv7_2_reduction_relu"
  type: "ReLU"
  bottom: "Conv7_2_reduction"
  top: "Conv7_2_reduction"
}
layer {
  name: "Conv7_2_3x3"
  type: "Convolution"
  bottom: "Conv7_1"
  top: "Conv7_2_3x3"
  param {
    lr_mult: 1.0
    decay_mult: 1.0
  }
  param {
    lr_mult: 2.0
    decay_mult: 0.0
  }
  convolution_param {
    num_output: 128
    pad: 2
    kernel_size: 3
    stride: 1
    weight_filler {
      type: "xavier"
    }
    bias_filler {
      type: "constant"
      value: 0.0
    }
    dilation: 2
  }
}
layer {
  name: "Conv7_2_3x3_relu"
  type: "ReLU"
  bottom: "Conv7_2_3x3"
  top: "Conv7_2_3x3"
}
layer {
  name: "Conv7_2_3x3_pool"
  type: "Pooling"
  bottom: "Conv7_1"
  top: "Conv7_2_3x3_pool"
  pooling_param {
    pool: MAX
    kernel_size: 3
    stride: 1
    pad: 1
  }
}
layer {
  name: "Conv7_2_1x1"
  type: "Convolution"
  bottom: "Conv7_2_3x3_pool"
  top: "Conv7_2_1x1"
  param {
    lr_mult: 1.0
    decay_mult: 1.0
  }
  param {
    lr_mult: 2.0
    decay_mult: 0.0
  }
  convolution_param {
    num_output: 128
    pad: 0
    kernel_size: 1
    stride: 1
    weight_filler {
      type: "xavier"
    }
    bias_filler {
      type: "constant"
      value: 0.0
    }
  }
}
layer {
  name: "Conv7_2_1x1_relu"
  type: "ReLU"
  bottom: "Conv7_2_1x1"
  top: "Conv7_2_1x1"
}
layer {
  name: "Conv7_2_1x5"
  type: "Convolution"
  bottom: "Conv7_1"
  top: "Conv7_2_1x5"
  param {
    lr_mult: 1.0
    decay_mult: 1.0
  }
  param {
    lr_mult: 2.0
    decay_mult: 0.0
  }
  convolution_param {
    num_output: 128
    weight_filler {
      type: "xavier"
    }
    bias_filler {
      type: "constant"
      value: 0.0
    }
    pad_h: 0
    pad_w: 2
    kernel_h: 1
    kernel_w: 5
    stride_h: 1
    stride_w: 1
  }
}
layer {
  name: "Conv7_2_1x5_relu"
  type: "ReLU"
  bottom: "Conv7_2_1x5"
  top: "Conv7_2_1x5"
}
layer {
  name: "Conv7_2_5x1"
  type: "Convolution"
  bottom: "Conv7_2_1x5"
  top: "Conv7_2_5x1"
  param {
    lr_mult: 1.0
    decay_mult: 1.0
  }
  param {
    lr_mult: 2.0
    decay_mult: 0.0
  }
  convolution_param {
    num_output: 128
    weight_filler {
      type: "xavier"
    }
    bias_filler {
      type: "constant"
      value: 0.0
    }
    pad_h: 2
    pad_w: 0
    kernel_h: 5
    kernel_w: 1
    stride_h: 1
    stride_w: 1
  }
}
layer {
  name: "Conv7_2_5x1_relu"
  type: "ReLU"
  bottom: "Conv7_2_5x1"
  top: "Conv7_2_5x1"
}
layer {
  name: "Conv7_2"
  type: "Concat"
  bottom: "Conv7_2_reduction"
  bottom: "Conv7_2_3x3"
  bottom: "Conv7_2_1x1"
  bottom: "Conv7_2_5x1"
  top: "Conv7_2"
}
layer {
  name: "Conv8_1"
  type: "Convolution"
  bottom: "Conv7_2"
  top: "Conv8_1"
  param {
    lr_mult: 1.0
    decay_mult: 1.0
  }
  param {
    lr_mult: 2.0
    decay_mult: 0.0
  }
  convolution_param {
    num_output: 256
    pad: 0
    kernel_size: 3
    stride: 1
    weight_filler {
      type: "xavier"
    }
    bias_filler {
      type: "constant"
      value: 0.0
    }
  }
}
layer {
  name: "Conv8_1_relu"
  type: "ReLU"
  bottom: "Conv8_1"
  top: "Conv8_1"
}
layer {
  name: "Conv8_2_reduction"
  type: "Convolution"
  bottom: "Conv8_1"
  top: "Conv8_2_reduction"
  param {
    lr_mult: 1.0
    decay_mult: 1.0
  }
  param {
    lr_mult: 2.0
    decay_mult: 0.0
  }
  convolution_param {
    num_output: 128
    pad: 0
    kernel_size: 1
    stride: 1
    weight_filler {
      type: "xavier"
    }
    bias_filler {
      type: "constant"
      value: 0.0
    }
  }
}
layer {
  name: "Conv8_2_reduction_relu"
  type: "ReLU"
  bottom: "Conv8_2_reduction"
  top: "Conv8_2_reduction"
}
layer {
  name: "Conv8_2_3x3"
  type: "Convolution"
  bottom: "Conv8_1"
  top: "Conv8_2_3x3"
  param {
    lr_mult: 1.0
    decay_mult: 1.0
  }
  param {
    lr_mult: 2.0
    decay_mult: 0.0
  }
  convolution_param {
    num_output: 128
    pad: 2
    kernel_size: 3
    stride: 1
    weight_filler {
      type: "xavier"
    }
    bias_filler {
      type: "constant"
      value: 0.0
    }
    dilation: 2
  }
}
layer {
  name: "Conv8_2_3x3_relu"
  type: "ReLU"
  bottom: "Conv8_2_3x3"
  top: "Conv8_2_3x3"
}
layer {
  name: "Conv8_2_3x3_pool"
  type: "Pooling"
  bottom: "Conv8_1"
  top: "Conv8_2_3x3_pool"
  pooling_param {
    pool: MAX
    kernel_size: 3
    stride: 1
    pad: 1
  }
}
layer {
  name: "Conv8_2_1x1"
  type: "Convolution"
  bottom: "Conv8_2_3x3_pool"
  top: "Conv8_2_1x1"
  param {
    lr_mult: 1.0
    decay_mult: 1.0
  }
  param {
    lr_mult: 2.0
    decay_mult: 0.0
  }
  convolution_param {
    num_output: 128
    pad: 0
    kernel_size: 1
    stride: 1
    weight_filler {
      type: "xavier"
    }
    bias_filler {
      type: "constant"
      value: 0.0
    }
  }
}
layer {
  name: "Conv8_2_1x1_relu"
  type: "ReLU"
  bottom: "Conv8_2_1x1"
  top: "Conv8_2_1x1"
}
layer {
  name: "Conv8_2_1x5"
  type: "Convolution"
  bottom: "Conv8_1"
  top: "Conv8_2_1x5"
  param {
    lr_mult: 1.0
    decay_mult: 1.0
  }
  param {
    lr_mult: 2.0
    decay_mult: 0.0
  }
  convolution_param {
    num_output: 128
    weight_filler {
      type: "xavier"
    }
    bias_filler {
      type: "constant"
      value: 0.0
    }
    pad_h: 0
    pad_w: 2
    kernel_h: 1
    kernel_w: 5
    stride_h: 1
    stride_w: 1
  }
}
layer {
  name: "Conv8_2_1x5_relu"
  type: "ReLU"
  bottom: "Conv8_2_1x5"
  top: "Conv8_2_1x5"
}
layer {
  name: "Conv8_2_5x1"
  type: "Convolution"
  bottom: "Conv8_2_1x5"
  top: "Conv8_2_5x1"
  param {
    lr_mult: 1.0
    decay_mult: 1.0
  }
  param {
    lr_mult: 2.0
    decay_mult: 0.0
  }
  convolution_param {
    num_output: 128
    weight_filler {
      type: "xavier"
    }
    bias_filler {
      type: "constant"
      value: 0.0
    }
    pad_h: 2
    pad_w: 0
    kernel_h: 5
    kernel_w: 1
    stride_h: 1
    stride_w: 1
  }
}
layer {
  name: "Conv8_2_5x1_relu"
  type: "ReLU"
  bottom: "Conv8_2_5x1"
  top: "Conv8_2_5x1"
}
layer {
  name: "Conv8_2"
  type: "Concat"
  bottom: "Conv8_2_reduction"
  bottom: "Conv8_2_3x3"
  bottom: "Conv8_2_1x1"
  bottom: "Conv8_2_5x1"
  top: "Conv8_2"
}
layer {
  name: "Conv9_1"
  type: "Convolution"
  bottom: "Conv8_2"
  top: "Conv9_1"
  param {
    lr_mult: 1.0
    decay_mult: 1.0
  }
  param {
    lr_mult: 2.0
    decay_mult: 0.0
  }
  convolution_param {
    num_output: 256
    pad: 0
    kernel_size: 3
    stride: 1
    weight_filler {
      type: "xavier"
    }
    bias_filler {
      type: "constant"
      value: 0.0
    }
  }
}
layer {
  name: "Conv9_1_relu"
  type: "ReLU"
  bottom: "Conv9_1"
  top: "Conv9_1"
}
layer {
  name: "Conv9_2_reduction"
  type: "Convolution"
  bottom: "Conv9_1"
  top: "Conv9_2_reduction"
  param {
    lr_mult: 1.0
    decay_mult: 1.0
  }
  param {
    lr_mult: 2.0
    decay_mult: 0.0
  }
  convolution_param {
    num_output: 128
    pad: 0
    kernel_size: 1
    stride: 1
    weight_filler {
      type: "xavier"
    }
    bias_filler {
      type: "constant"
      value: 0.0
    }
  }
}
layer {
  name: "Conv9_2_reduction_relu"
  type: "ReLU"
  bottom: "Conv9_2_reduction"
  top: "Conv9_2_reduction"
}
layer {
  name: "Conv9_2_3x3"
  type: "Convolution"
  bottom: "Conv9_1"
  top: "Conv9_2_3x3"
  param {
    lr_mult: 1.0
    decay_mult: 1.0
  }
  param {
    lr_mult: 2.0
    decay_mult: 0.0
  }
  convolution_param {
    num_output: 128
    pad: 2
    kernel_size: 3
    stride: 1
    weight_filler {
      type: "xavier"
    }
    bias_filler {
      type: "constant"
      value: 0.0
    }
    dilation: 2
  }
}
layer {
  name: "Conv9_2_3x3_relu"
  type: "ReLU"
  bottom: "Conv9_2_3x3"
  top: "Conv9_2_3x3"
}
layer {
  name: "Conv9_2_3x3_pool"
  type: "Pooling"
  bottom: "Conv9_1"
  top: "Conv9_2_3x3_pool"
  pooling_param {
    pool: MAX
    kernel_size: 3
    stride: 1
    pad: 1
  }
}
layer {
  name: "Conv9_2_1x1"
  type: "Convolution"
  bottom: "Conv9_2_3x3_pool"
  top: "Conv9_2_1x1"
  param {
    lr_mult: 1.0
    decay_mult: 1.0
  }
  param {
    lr_mult: 2.0
    decay_mult: 0.0
  }
  convolution_param {
    num_output: 128
    pad: 0
    kernel_size: 1
    stride: 1
    weight_filler {
      type: "xavier"
    }
    bias_filler {
      type: "constant"
      value: 0.0
    }
  }
}
layer {
  name: "Conv9_2_1x1_relu"
  type: "ReLU"
  bottom: "Conv9_2_1x1"
  top: "Conv9_2_1x1"
}
layer {
  name: "Conv9_2_1x5"
  type: "Convolution"
  bottom: "Conv9_1"
  top: "Conv9_2_1x5"
  param {
    lr_mult: 1.0
    decay_mult: 1.0
  }
  param {
    lr_mult: 2.0
    decay_mult: 0.0
  }
  convolution_param {
    num_output: 128
    weight_filler {
      type: "xavier"
    }
    bias_filler {
      type: "constant"
      value: 0.0
    }
    pad_h: 0
    pad_w: 2
    kernel_h: 1
    kernel_w: 5
    stride_h: 1
    stride_w: 1
  }
}
layer {
  name: "Conv9_2_1x5_relu"
  type: "ReLU"
  bottom: "Conv9_2_1x5"
  top: "Conv9_2_1x5"
}
layer {
  name: "Conv9_2_5x1"
  type: "Convolution"
  bottom: "Conv9_2_1x5"
  top: "Conv9_2_5x1"
  param {
    lr_mult: 1.0
    decay_mult: 1.0
  }
  param {
    lr_mult: 2.0
    decay_mult: 0.0
  }
  convolution_param {
    num_output: 128
    weight_filler {
      type: "xavier"
    }
    bias_filler {
      type: "constant"
      value: 0.0
    }
    pad_h: 2
    pad_w: 0
    kernel_h: 5
    kernel_w: 1
    stride_h: 1
    stride_w: 1
  }
}
layer {
  name: "Conv9_2_5x1_relu"
  type: "ReLU"
  bottom: "Conv9_2_5x1"
  top: "Conv9_2_5x1"
}
layer {
  name: "Conv9_2"
  type: "Concat"
  bottom: "Conv9_2_reduction"
  bottom: "Conv9_2_3x3"
  bottom: "Conv9_2_1x1"
  bottom: "Conv9_2_5x1"
  top: "Conv9_2"
}
layer {
  name: "Conv10_1"
  type: "Convolution"
  bottom: "Conv9_2"
  top: "Conv10_1"
  param {
    lr_mult: 1.0
    decay_mult: 1.0
  }
  param {
    lr_mult: 2.0
    decay_mult: 0.0
  }
  convolution_param {
    num_output: 256
    pad: 0
    kernel_size: 3
    stride: 1
    weight_filler {
      type: "xavier"
    }
    bias_filler {
      type: "constant"
      value: 0.0
    }
  }
}
layer {
  name: "Conv10_1_relu"
  type: "ReLU"
  bottom: "Conv10_1"
  top: "Conv10_1"
}
layer {
  name: "Conv10_2_reduction"
  type: "Convolution"
  bottom: "Conv10_1"
  top: "Conv10_2_reduction"
  param {
    lr_mult: 1.0
    decay_mult: 1.0
  }
  param {
    lr_mult: 2.0
    decay_mult: 0.0
  }
  convolution_param {
    num_output: 128
    pad: 0
    kernel_size: 1
    stride: 1
    weight_filler {
      type: "xavier"
    }
    bias_filler {
      type: "constant"
      value: 0.0
    }
  }
}
layer {
  name: "Conv10_2_reduction_relu"
  type: "ReLU"
  bottom: "Conv10_2_reduction"
  top: "Conv10_2_reduction"
}
layer {
  name: "Conv10_2_3x3"
  type: "Convolution"
  bottom: "Conv10_1"
  top: "Conv10_2_3x3"
  param {
    lr_mult: 1.0
    decay_mult: 1.0
  }
  param {
    lr_mult: 2.0
    decay_mult: 0.0
  }
  convolution_param {
    num_output: 128
    pad: 2
    kernel_size: 3
    stride: 1
    weight_filler {
      type: "xavier"
    }
    bias_filler {
      type: "constant"
      value: 0.0
    }
    dilation: 2
  }
}
layer {
  name: "Conv10_2_3x3_relu"
  type: "ReLU"
  bottom: "Conv10_2_3x3"
  top: "Conv10_2_3x3"
}
layer {
  name: "Conv10_2_3x3_pool"
  type: "Pooling"
  bottom: "Conv10_1"
  top: "Conv10_2_3x3_pool"
  pooling_param {
    pool: MAX
    kernel_size: 3
    stride: 1
    pad: 1
  }
}
layer {
  name: "Conv10_2_1x1"
  type: "Convolution"
  bottom: "Conv10_2_3x3_pool"
  top: "Conv10_2_1x1"
  param {
    lr_mult: 1.0
    decay_mult: 1.0
  }
  param {
    lr_mult: 2.0
    decay_mult: 0.0
  }
  convolution_param {
    num_output: 128
    pad: 0
    kernel_size: 1
    stride: 1
    weight_filler {
      type: "xavier"
    }
    bias_filler {
      type: "constant"
      value: 0.0
    }
  }
}
layer {
  name: "Conv10_2_1x1_relu"
  type: "ReLU"
  bottom: "Conv10_2_1x1"
  top: "Conv10_2_1x1"
}
layer {
  name: "Conv10_2_1x5"
  type: "Convolution"
  bottom: "Conv10_1"
  top: "Conv10_2_1x5"
  param {
    lr_mult: 1.0
    decay_mult: 1.0
  }
  param {
    lr_mult: 2.0
    decay_mult: 0.0
  }
  convolution_param {
    num_output: 128
    weight_filler {
      type: "xavier"
    }
    bias_filler {
      type: "constant"
      value: 0.0
    }
    pad_h: 0
    pad_w: 2
    kernel_h: 1
    kernel_w: 5
    stride_h: 1
    stride_w: 1
  }
}
layer {
  name: "Conv10_2_1x5_relu"
  type: "ReLU"
  bottom: "Conv10_2_1x5"
  top: "Conv10_2_1x5"
}
layer {
  name: "Conv10_2_5x1"
  type: "Convolution"
  bottom: "Conv10_2_1x5"
  top: "Conv10_2_5x1"
  param {
    lr_mult: 1.0
    decay_mult: 1.0
  }
  param {
    lr_mult: 2.0
    decay_mult: 0.0
  }
  convolution_param {
    num_output: 128
    weight_filler {
      type: "xavier"
    }
    bias_filler {
      type: "constant"
      value: 0.0
    }
    pad_h: 2
    pad_w: 0
    kernel_h: 5
    kernel_w: 1
    stride_h: 1
    stride_w: 1
  }
}
layer {
  name: "Conv10_2_5x1_relu"
  type: "ReLU"
  bottom: "Conv10_2_5x1"
  top: "Conv10_2_5x1"
}
layer {
  name: "Conv10_2"
  type: "Concat"
  bottom: "Conv10_2_reduction"
  bottom: "Conv10_2_3x3"
  bottom: "Conv10_2_1x1"
  bottom: "Conv10_2_5x1"
  top: "Conv10_2"
}
layer {
  name: "conv3_3_inception_reduction"
  type: "Convolution"
  bottom: "conv3_3"
  top: "conv3_3_inception_reduction"
  param {
    lr_mult: 1.0
    decay_mult: 1.0
  }
  convolution_param {
    num_output: 128
    bias_term: false
    pad: 0
    kernel_size: 1
    stride: 1
    weight_filler {
      type: "gaussian"
      std: 0.00999999977648
    }
  }
}
layer {
  name: "conv3_3_inception_reduction_bn"
  type: "BatchNorm"
  bottom: "conv3_3_inception_reduction"
  top: "conv3_3_inception_reduction"
  param {
    lr_mult: 0.0
    decay_mult: 0.0
  }
  param {
    lr_mult: 0.0
    decay_mult: 0.0
  }
  param {
    lr_mult: 0.0
    decay_mult: 0.0
  }
  batch_norm_param {
    use_global_stats: false
    eps: 0.0010000000475
  }
}
layer {
  name: "conv3_3_inception_reduction_scale"
  type: "Scale"
  bottom: "conv3_3_inception_reduction"
  top: "conv3_3_inception_reduction"
  param {
    lr_mult: 1.0
    decay_mult: 0.0
  }
  param {
    lr_mult: 1.0
    decay_mult: 0.0
  }
  scale_param {
    filler {
      type: "constant"
      value: 1.0
    }
    bias_term: true
    bias_filler {
      type: "constant"
      value: 0.0
    }
  }
}
layer {
  name: "conv3_3_inception_reduction_relu"
  type: "ReLU"
  bottom: "conv3_3_inception_reduction"
  top: "conv3_3_inception_reduction"
}
layer {
  name: "conv3_3_inception_3x3"
  type: "Convolution"
  bottom: "conv3_3"
  top: "conv3_3_inception_3x3"
  param {
    lr_mult: 1.0
    decay_mult: 1.0
  }
  convolution_param {
    num_output: 128
    bias_term: false
    pad: 2
    kernel_size: 3
    stride: 1
    weight_filler {
      type: "gaussian"
      std: 0.00999999977648
    }
    dilation: 2
  }
}
layer {
  name: "conv3_3_inception_3x3_bn"
  type: "BatchNorm"
  bottom: "conv3_3_inception_3x3"
  top: "conv3_3_inception_3x3"
  param {
    lr_mult: 0.0
    decay_mult: 0.0
  }
  param {
    lr_mult: 0.0
    decay_mult: 0.0
  }
  param {
    lr_mult: 0.0
    decay_mult: 0.0
  }
  batch_norm_param {
    use_global_stats: false
    eps: 0.0010000000475
  }
}
layer {
  name: "conv3_3_inception_3x3_scale"
  type: "Scale"
  bottom: "conv3_3_inception_3x3"
  top: "conv3_3_inception_3x3"
  param {
    lr_mult: 1.0
    decay_mult: 0.0
  }
  param {
    lr_mult: 1.0
    decay_mult: 0.0
  }
  scale_param {
    filler {
      type: "constant"
      value: 1.0
    }
    bias_term: true
    bias_filler {
      type: "constant"
      value: 0.0
    }
  }
}
layer {
  name: "conv3_3_inception_3x3_relu"
  type: "ReLU"
  bottom: "conv3_3_inception_3x3"
  top: "conv3_3_inception_3x3"
}
layer {
  name: "conv3_3_inception_3x3_pool"
  type: "Pooling"
  bottom: "conv3_3"
  top: "conv3_3_inception_3x3_pool"
  pooling_param {
    pool: MAX
    kernel_size: 3
    stride: 1
    pad: 1
  }
}
layer {
  name: "conv3_3_inception_1x1"
  type: "Convolution"
  bottom: "conv3_3_inception_3x3_pool"
  top: "conv3_3_inception_1x1"
  param {
    lr_mult: 1.0
    decay_mult: 1.0
  }
  convolution_param {
    num_output: 128
    bias_term: false
    pad: 0
    kernel_size: 1
    stride: 1
    weight_filler {
      type: "gaussian"
      std: 0.00999999977648
    }
  }
}
layer {
  name: "conv3_3_inception_1x1_bn"
  type: "BatchNorm"
  bottom: "conv3_3_inception_1x1"
  top: "conv3_3_inception_1x1"
  param {
    lr_mult: 0.0
    decay_mult: 0.0
  }
  param {
    lr_mult: 0.0
    decay_mult: 0.0
  }
  param {
    lr_mult: 0.0
    decay_mult: 0.0
  }
  batch_norm_param {
    use_global_stats: false
    eps: 0.0010000000475
  }
}
layer {
  name: "conv3_3_inception_1x1_scale"
  type: "Scale"
  bottom: "conv3_3_inception_1x1"
  top: "conv3_3_inception_1x1"
  param {
    lr_mult: 1.0
    decay_mult: 0.0
  }
  param {
    lr_mult: 1.0
    decay_mult: 0.0
  }
  scale_param {
    filler {
      type: "constant"
      value: 1.0
    }
    bias_term: true
    bias_filler {
      type: "constant"
      value: 0.0
    }
  }
}
layer {
  name: "conv3_3_inception_1x1_relu"
  type: "ReLU"
  bottom: "conv3_3_inception_1x1"
  top: "conv3_3_inception_1x1"
}
layer {
  name: "conv3_3_inception_1x5"
  type: "Convolution"
  bottom: "conv3_3"
  top: "conv3_3_inception_1x5"
  param {
    lr_mult: 1.0
    decay_mult: 1.0
  }
  convolution_param {
    num_output: 128
    bias_term: false
    weight_filler {
      type: "gaussian"
      std: 0.00999999977648
    }
    pad_h: 0
    pad_w: 4
    kernel_h: 1
    kernel_w: 5
    stride_h: 1
    stride_w: 1
    dilation: 2
  }
}
layer {
  name: "conv3_3_inception_1x5_bn"
  type: "BatchNorm"
  bottom: "conv3_3_inception_1x5"
  top: "conv3_3_inception_1x5"
  param {
    lr_mult: 0.0
    decay_mult: 0.0
  }
  param {
    lr_mult: 0.0
    decay_mult: 0.0
  }
  param {
    lr_mult: 0.0
    decay_mult: 0.0
  }
  batch_norm_param {
    moving_average_fraction: 0.999000012875
    eps: 0.0010000000475
  }
}
layer {
  name: "conv3_3_inception_1x5_scale"
  type: "Scale"
  bottom: "conv3_3_inception_1x5"
  top: "conv3_3_inception_1x5"
  param {
    lr_mult: 1.0
    decay_mult: 0.0
  }
  param {
    lr_mult: 1.0
    decay_mult: 0.0
  }
  scale_param {
    filler {
      type: "constant"
      value: 1.0
    }
    bias_term: true
    bias_filler {
      type: "constant"
      value: 0.0
    }
  }
}
layer {
  name: "conv3_3_inception_1x5_relu"
  type: "ReLU"
  bottom: "conv3_3_inception_1x5"
  top: "conv3_3_inception_1x5"
}
layer {
  name: "conv3_3_inception_5x1"
  type: "Convolution"
  bottom: "conv3_3_inception_1x5"
  top: "conv3_3_inception_5x1"
  param {
    lr_mult: 1.0
    decay_mult: 1.0
  }
  convolution_param {
    num_output: 128
    bias_term: false
    weight_filler {
      type: "gaussian"
      std: 0.00999999977648
    }
    pad_h: 4
    pad_w: 0
    kernel_h: 5
    kernel_w: 1
    stride_h: 1
    stride_w: 1
    dilation: 2
  }
}
layer {
  name: "conv3_3_inception_5x1_bn"
  type: "BatchNorm"
  bottom: "conv3_3_inception_5x1"
  top: "conv3_3_inception_5x1"
  param {
    lr_mult: 0.0
    decay_mult: 0.0
  }
  param {
    lr_mult: 0.0
    decay_mult: 0.0
  }
  param {
    lr_mult: 0.0
    decay_mult: 0.0
  }
  batch_norm_param {
    moving_average_fraction: 0.999000012875
    eps: 0.0010000000475
  }
}
layer {
  name: "conv3_3_inception_5x1_scale"
  type: "Scale"
  bottom: "conv3_3_inception_5x1"
  top: "conv3_3_inception_5x1"
  param {
    lr_mult: 1.0
    decay_mult: 0.0
  }
  param {
    lr_mult: 1.0
    decay_mult: 0.0
  }
  scale_param {
    filler {
      type: "constant"
      value: 1.0
    }
    bias_term: true
    bias_filler {
      type: "constant"
      value: 0.0
    }
  }
}
layer {
  name: "conv3_3_inception_5x1_relu"
  type: "ReLU"
  bottom: "conv3_3_inception_5x1"
  top: "conv3_3_inception_5x1"
}
layer {
  name: "conv3_3_inception"
  type: "Concat"
  bottom: "conv3_3_inception_reduction"
  bottom: "conv3_3_inception_3x3"
  bottom: "conv3_3_inception_1x1"
  bottom: "conv3_3_inception_5x1"
  top: "conv3_3_inception"
}
layer {
  name: "conv3_3_downsample"
  type: "Pooling"
  bottom: "conv3_3_inception"
  top: "conv3_3_downsample"
  pooling_param {
    pool: MAX
    kernel_size: 3
    stride: 2
  }
}
layer {
  name: "conv4_3_inception_reduction"
  type: "Convolution"
  bottom: "conv4_3"
  top: "conv4_3_inception_reduction"
  param {
    lr_mult: 1.0
    decay_mult: 1.0
  }
  convolution_param {
    num_output: 128
    bias_term: false
    pad: 0
    kernel_size: 1
    stride: 1
    weight_filler {
      type: "gaussian"
      std: 0.00999999977648
    }
  }
}
layer {
  name: "conv4_3_inception_reduction_bn"
  type: "BatchNorm"
  bottom: "conv4_3_inception_reduction"
  top: "conv4_3_inception_reduction"
  param {
    lr_mult: 0.0
    decay_mult: 0.0
  }
  param {
    lr_mult: 0.0
    decay_mult: 0.0
  }
  param {
    lr_mult: 0.0
    decay_mult: 0.0
  }
  batch_norm_param {
    use_global_stats: false
    eps: 0.0010000000475
  }
}
layer {
  name: "conv4_3_inception_reduction_scale"
  type: "Scale"
  bottom: "conv4_3_inception_reduction"
  top: "conv4_3_inception_reduction"
  param {
    lr_mult: 1.0
    decay_mult: 0.0
  }
  param {
    lr_mult: 1.0
    decay_mult: 0.0
  }
  scale_param {
    filler {
      type: "constant"
      value: 1.0
    }
    bias_term: true
    bias_filler {
      type: "constant"
      value: 0.0
    }
  }
}
layer {
  name: "conv4_3_inception_reduction_relu"
  type: "ReLU"
  bottom: "conv4_3_inception_reduction"
  top: "conv4_3_inception_reduction"
}
layer {
  name: "conv4_3_inception_3x3"
  type: "Convolution"
  bottom: "conv4_3"
  top: "conv4_3_inception_3x3"
  param {
    lr_mult: 1.0
    decay_mult: 1.0
  }
  convolution_param {
    num_output: 128
    bias_term: false
    pad: 2
    kernel_size: 3
    stride: 1
    weight_filler {
      type: "gaussian"
      std: 0.00999999977648
    }
    dilation: 2
  }
}
layer {
  name: "conv4_3_inception_3x3_bn"
  type: "BatchNorm"
  bottom: "conv4_3_inception_3x3"
  top: "conv4_3_inception_3x3"
  param {
    lr_mult: 0.0
    decay_mult: 0.0
  }
  param {
    lr_mult: 0.0
    decay_mult: 0.0
  }
  param {
    lr_mult: 0.0
    decay_mult: 0.0
  }
  batch_norm_param {
    use_global_stats: false
    eps: 0.0010000000475
  }
}
layer {
  name: "conv4_3_inception_3x3_scale"
  type: "Scale"
  bottom: "conv4_3_inception_3x3"
  top: "conv4_3_inception_3x3"
  param {
    lr_mult: 1.0
    decay_mult: 0.0
  }
  param {
    lr_mult: 1.0
    decay_mult: 0.0
  }
  scale_param {
    filler {
      type: "constant"
      value: 1.0
    }
    bias_term: true
    bias_filler {
      type: "constant"
      value: 0.0
    }
  }
}
layer {
  name: "conv4_3_inception_3x3_relu"
  type: "ReLU"
  bottom: "conv4_3_inception_3x3"
  top: "conv4_3_inception_3x3"
}
layer {
  name: "conv4_3_inception_3x3_pool"
  type: "Pooling"
  bottom: "conv4_3"
  top: "conv4_3_inception_3x3_pool"
  pooling_param {
    pool: MAX
    kernel_size: 3
    stride: 1
    pad: 1
  }
}
layer {
  name: "conv4_3_inception_1x1"
  type: "Convolution"
  bottom: "conv4_3_inception_3x3_pool"
  top: "conv4_3_inception_1x1"
  param {
    lr_mult: 1.0
    decay_mult: 1.0
  }
  convolution_param {
    num_output: 128
    bias_term: false
    pad: 0
    kernel_size: 1
    stride: 1
    weight_filler {
      type: "gaussian"
      std: 0.00999999977648
    }
  }
}
layer {
  name: "conv4_3_inception_1x1_bn"
  type: "BatchNorm"
  bottom: "conv4_3_inception_1x1"
  top: "conv4_3_inception_1x1"
  param {
    lr_mult: 0.0
    decay_mult: 0.0
  }
  param {
    lr_mult: 0.0
    decay_mult: 0.0
  }
  param {
    lr_mult: 0.0
    decay_mult: 0.0
  }
  batch_norm_param {
    use_global_stats: false
    eps: 0.0010000000475
  }
}
layer {
  name: "conv4_3_inception_1x1_scale"
  type: "Scale"
  bottom: "conv4_3_inception_1x1"
  top: "conv4_3_inception_1x1"
  param {
    lr_mult: 1.0
    decay_mult: 0.0
  }
  param {
    lr_mult: 1.0
    decay_mult: 0.0
  }
  scale_param {
    filler {
      type: "constant"
      value: 1.0
    }
    bias_term: true
    bias_filler {
      type: "constant"
      value: 0.0
    }
  }
}
layer {
  name: "conv4_3_inception_1x1_relu"
  type: "ReLU"
  bottom: "conv4_3_inception_1x1"
  top: "conv4_3_inception_1x1"
}
layer {
  name: "conv4_3_inception_1x5"
  type: "Convolution"
  bottom: "conv4_3"
  top: "conv4_3_inception_1x5"
  param {
    lr_mult: 1.0
    decay_mult: 1.0
  }
  convolution_param {
    num_output: 128
    bias_term: false
    weight_filler {
      type: "gaussian"
      std: 0.00999999977648
    }
    pad_h: 0
    pad_w: 4
    kernel_h: 1
    kernel_w: 5
    stride_h: 1
    stride_w: 1
    dilation: 2
  }
}
layer {
  name: "conv4_3_inception_1x5_bn"
  type: "BatchNorm"
  bottom: "conv4_3_inception_1x5"
  top: "conv4_3_inception_1x5"
  param {
    lr_mult: 0.0
    decay_mult: 0.0
  }
  param {
    lr_mult: 0.0
    decay_mult: 0.0
  }
  param {
    lr_mult: 0.0
    decay_mult: 0.0
  }
  batch_norm_param {
    moving_average_fraction: 0.999000012875
    eps: 0.0010000000475
  }
}
layer {
  name: "conv4_3_inception_1x5_scale"
  type: "Scale"
  bottom: "conv4_3_inception_1x5"
  top: "conv4_3_inception_1x5"
  param {
    lr_mult: 1.0
    decay_mult: 0.0
  }
  param {
    lr_mult: 1.0
    decay_mult: 0.0
  }
  scale_param {
    filler {
      type: "constant"
      value: 1.0
    }
    bias_term: true
    bias_filler {
      type: "constant"
      value: 0.0
    }
  }
}
layer {
  name: "conv4_3_inception_1x5_relu"
  type: "ReLU"
  bottom: "conv4_3_inception_1x5"
  top: "conv4_3_inception_1x5"
}
layer {
  name: "conv4_3_inception_5x1"
  type: "Convolution"
  bottom: "conv4_3_inception_1x5"
  top: "conv4_3_inception_5x1"
  param {
    lr_mult: 1.0
    decay_mult: 1.0
  }
  convolution_param {
    num_output: 128
    bias_term: false
    weight_filler {
      type: "gaussian"
      std: 0.00999999977648
    }
    pad_h: 4
    pad_w: 0
    kernel_h: 5
    kernel_w: 1
    stride_h: 1
    stride_w: 1
    dilation: 2
  }
}
layer {
  name: "conv4_3_inception_5x1_bn"
  type: "BatchNorm"
  bottom: "conv4_3_inception_5x1"
  top: "conv4_3_inception_5x1"
  param {
    lr_mult: 0.0
    decay_mult: 0.0
  }
  param {
    lr_mult: 0.0
    decay_mult: 0.0
  }
  param {
    lr_mult: 0.0
    decay_mult: 0.0
  }
  batch_norm_param {
    moving_average_fraction: 0.999000012875
    eps: 0.0010000000475
  }
}
layer {
  name: "conv4_3_inception_5x1_scale"
  type: "Scale"
  bottom: "conv4_3_inception_5x1"
  top: "conv4_3_inception_5x1"
  param {
    lr_mult: 1.0
    decay_mult: 0.0
  }
  param {
    lr_mult: 1.0
    decay_mult: 0.0
  }
  scale_param {
    filler {
      type: "constant"
      value: 1.0
    }
    bias_term: true
    bias_filler {
      type: "constant"
      value: 0.0
    }
  }
}
layer {
  name: "conv4_3_inception_5x1_relu"
  type: "ReLU"
  bottom: "conv4_3_inception_5x1"
  top: "conv4_3_inception_5x1"
}
layer {
  name: "conv4_3_inception"
  type: "Concat"
  bottom: "conv4_3_inception_reduction"
  bottom: "conv4_3_inception_3x3"
  bottom: "conv4_3_inception_1x1"
  bottom: "conv4_3_inception_5x1"
  top: "conv4_3_inception"
}
layer {
  name: "conv4_3_downsample"
  type: "Pooling"
  bottom: "conv4_3_inception"
  top: "conv4_3_downsample"
  pooling_param {
    pool: MAX
    kernel_size: 3
    stride: 2
  }
}
layer {
  name: "fc7_inception_reduction"
  type: "Convolution"
  bottom: "fc7"
  top: "fc7_inception_reduction"
  param {
    lr_mult: 1.0
    decay_mult: 1.0
  }
  convolution_param {
    num_output: 128
    bias_term: false
    pad: 0
    kernel_size: 1
    stride: 1
    weight_filler {
      type: "gaussian"
      std: 0.00999999977648
    }
  }
}
layer {
  name: "fc7_inception_reduction_bn"
  type: "BatchNorm"
  bottom: "fc7_inception_reduction"
  top: "fc7_inception_reduction"
  param {
    lr_mult: 0.0
    decay_mult: 0.0
  }
  param {
    lr_mult: 0.0
    decay_mult: 0.0
  }
  param {
    lr_mult: 0.0
    decay_mult: 0.0
  }
  batch_norm_param {
    use_global_stats: false
    eps: 0.0010000000475
  }
}
layer {
  name: "fc7_inception_reduction_scale"
  type: "Scale"
  bottom: "fc7_inception_reduction"
  top: "fc7_inception_reduction"
  param {
    lr_mult: 1.0
    decay_mult: 0.0
  }
  param {
    lr_mult: 1.0
    decay_mult: 0.0
  }
  scale_param {
    filler {
      type: "constant"
      value: 1.0
    }
    bias_term: true
    bias_filler {
      type: "constant"
      value: 0.0
    }
  }
}
layer {
  name: "fc7_inception_reduction_relu"
  type: "ReLU"
  bottom: "fc7_inception_reduction"
  top: "fc7_inception_reduction"
}
layer {
  name: "fc7_inception_3x3"
  type: "Convolution"
  bottom: "fc7"
  top: "fc7_inception_3x3"
  param {
    lr_mult: 1.0
    decay_mult: 1.0
  }
  convolution_param {
    num_output: 128
    bias_term: false
    pad: 2
    kernel_size: 3
    stride: 1
    weight_filler {
      type: "gaussian"
      std: 0.00999999977648
    }
    dilation: 2
  }
}
layer {
  name: "fc7_inception_3x3_bn"
  type: "BatchNorm"
  bottom: "fc7_inception_3x3"
  top: "fc7_inception_3x3"
  param {
    lr_mult: 0.0
    decay_mult: 0.0
  }
  param {
    lr_mult: 0.0
    decay_mult: 0.0
  }
  param {
    lr_mult: 0.0
    decay_mult: 0.0
  }
  batch_norm_param {
    use_global_stats: false
    eps: 0.0010000000475
  }
}
layer {
  name: "fc7_inception_3x3_scale"
  type: "Scale"
  bottom: "fc7_inception_3x3"
  top: "fc7_inception_3x3"
  param {
    lr_mult: 1.0
    decay_mult: 0.0
  }
  param {
    lr_mult: 1.0
    decay_mult: 0.0
  }
  scale_param {
    filler {
      type: "constant"
      value: 1.0
    }
    bias_term: true
    bias_filler {
      type: "constant"
      value: 0.0
    }
  }
}
layer {
  name: "fc7_inception_3x3_relu"
  type: "ReLU"
  bottom: "fc7_inception_3x3"
  top: "fc7_inception_3x3"
}
layer {
  name: "fc7_inception_3x3_pool"
  type: "Pooling"
  bottom: "fc7"
  top: "fc7_inception_3x3_pool"
  pooling_param {
    pool: MAX
    kernel_size: 3
    stride: 1
    pad: 1
  }
}
layer {
  name: "fc7_inception_1x1"
  type: "Convolution"
  bottom: "fc7_inception_3x3_pool"
  top: "fc7_inception_1x1"
  param {
    lr_mult: 1.0
    decay_mult: 1.0
  }
  convolution_param {
    num_output: 128
    bias_term: false
    pad: 0
    kernel_size: 1
    stride: 1
    weight_filler {
      type: "gaussian"
      std: 0.00999999977648
    }
  }
}
layer {
  name: "fc7_inception_1x1_bn"
  type: "BatchNorm"
  bottom: "fc7_inception_1x1"
  top: "fc7_inception_1x1"
  param {
    lr_mult: 0.0
    decay_mult: 0.0
  }
  param {
    lr_mult: 0.0
    decay_mult: 0.0
  }
  param {
    lr_mult: 0.0
    decay_mult: 0.0
  }
  batch_norm_param {
    use_global_stats: false
    eps: 0.0010000000475
  }
}
layer {
  name: "fc7_inception_1x1_scale"
  type: "Scale"
  bottom: "fc7_inception_1x1"
  top: "fc7_inception_1x1"
  param {
    lr_mult: 1.0
    decay_mult: 0.0
  }
  param {
    lr_mult: 1.0
    decay_mult: 0.0
  }
  scale_param {
    filler {
      type: "constant"
      value: 1.0
    }
    bias_term: true
    bias_filler {
      type: "constant"
      value: 0.0
    }
  }
}
layer {
  name: "fc7_inception_1x1_relu"
  type: "ReLU"
  bottom: "fc7_inception_1x1"
  top: "fc7_inception_1x1"
}
layer {
  name: "fc7_inception_1x5"
  type: "Convolution"
  bottom: "fc7"
  top: "fc7_inception_1x5"
  param {
    lr_mult: 1.0
    decay_mult: 1.0
  }
  convolution_param {
    num_output: 128
    bias_term: false
    weight_filler {
      type: "gaussian"
      std: 0.00999999977648
    }
    pad_h: 0
    pad_w: 4
    kernel_h: 1
    kernel_w: 5
    stride_h: 1
    stride_w: 1
    dilation: 2
  }
}
layer {
  name: "fc7_inception_1x5_bn"
  type: "BatchNorm"
  bottom: "fc7_inception_1x5"
  top: "fc7_inception_1x5"
  param {
    lr_mult: 0.0
    decay_mult: 0.0
  }
  param {
    lr_mult: 0.0
    decay_mult: 0.0
  }
  param {
    lr_mult: 0.0
    decay_mult: 0.0
  }
  batch_norm_param {
    moving_average_fraction: 0.999000012875
    eps: 0.0010000000475
  }
}
layer {
  name: "fc7_inception_1x5_scale"
  type: "Scale"
  bottom: "fc7_inception_1x5"
  top: "fc7_inception_1x5"
  param {
    lr_mult: 1.0
    decay_mult: 0.0
  }
  param {
    lr_mult: 1.0
    decay_mult: 0.0
  }
  scale_param {
    filler {
      type: "constant"
      value: 1.0
    }
    bias_term: true
    bias_filler {
      type: "constant"
      value: 0.0
    }
  }
}
layer {
  name: "fc7_inception_1x5_relu"
  type: "ReLU"
  bottom: "fc7_inception_1x5"
  top: "fc7_inception_1x5"
}
layer {
  name: "fc7_inception_5x1"
  type: "Convolution"
  bottom: "fc7_inception_1x5"
  top: "fc7_inception_5x1"
  param {
    lr_mult: 1.0
    decay_mult: 1.0
  }
  convolution_param {
    num_output: 128
    bias_term: false
    weight_filler {
      type: "gaussian"
      std: 0.00999999977648
    }
    pad_h: 4
    pad_w: 0
    kernel_h: 5
    kernel_w: 1
    stride_h: 1
    stride_w: 1
    dilation: 2
  }
}
layer {
  name: "fc7_inception_5x1_bn"
  type: "BatchNorm"
  bottom: "fc7_inception_5x1"
  top: "fc7_inception_5x1"
  param {
    lr_mult: 0.0
    decay_mult: 0.0
  }
  param {
    lr_mult: 0.0
    decay_mult: 0.0
  }
  param {
    lr_mult: 0.0
    decay_mult: 0.0
  }
  batch_norm_param {
    moving_average_fraction: 0.999000012875
    eps: 0.0010000000475
  }
}
layer {
  name: "fc7_inception_5x1_scale"
  type: "Scale"
  bottom: "fc7_inception_5x1"
  top: "fc7_inception_5x1"
  param {
    lr_mult: 1.0
    decay_mult: 0.0
  }
  param {
    lr_mult: 1.0
    decay_mult: 0.0
  }
  scale_param {
    filler {
      type: "constant"
      value: 1.0
    }
    bias_term: true
    bias_filler {
      type: "constant"
      value: 0.0
    }
  }
}
layer {
  name: "fc7_inception_5x1_relu"
  type: "ReLU"
  bottom: "fc7_inception_5x1"
  top: "fc7_inception_5x1"
}
layer {
  name: "fc7_inception"
  type: "Concat"
  bottom: "fc7_inception_reduction"
  bottom: "fc7_inception_3x3"
  bottom: "fc7_inception_1x1"
  bottom: "fc7_inception_5x1"
  top: "fc7_inception"
}
layer {
  name: "fc7_downsample"
  type: "Pooling"
  bottom: "fc7_inception"
  top: "fc7_downsample"
  pooling_param {
    pool: MAX
    kernel_size: 3
    stride: 2
  }
}
layer {
  name: "fc7_upsample"
  type: "Deconvolution"
  bottom: "fc7_inception"
  top: "fc7_upsample"
  param {
    lr_mult: 0.0
    decay_mult: 0.0
  }
  convolution_param {
    num_output: 512
    bias_term: false
    pad: 1
    kernel_size: 4
    group: 64
    stride: 2
    weight_filler {
      type: "bilinear"
    }
  }
}
layer {
  name: "Conv6_2_upsample"
  type: "Deconvolution"
  bottom: "Conv6_2"
  top: "Conv6_2_upsample"
  param {
    lr_mult: 0.0
    decay_mult: 0.0
  }
  convolution_param {
    num_output: 512
    bias_term: false
    pad: 1
    kernel_size: 4
    group: 64
    stride: 2
    weight_filler {
      type: "bilinear"
    }
  }
}
layer {
  name: "Conv7_2_upsample"
  type: "Deconvolution"
  bottom: "Conv7_2"
  top: "Conv7_2_upsample"
  param {
    lr_mult: 0.0
    decay_mult: 0.0
  }
  convolution_param {
    num_output: 512
    bias_term: false
    pad: 1
    kernel_size: 4
    group: 64
    stride: 2
    weight_filler {
      type: "bilinear"
    }
  }
}
layer {
  name: "conv4_3_concat_mask"
  type: "Eltwise"
  bottom: "fc7_upsample"
  bottom: "conv4_3_inception"
  bottom: "conv3_3_downsample"
  top: "conv4_3_concat_mask"
}
layer {
  name: "conv4_3_conv_reduce"
  type: "Convolution"
  bottom: "conv4_3_concat_mask"
  top: "conv4_3_conv_reduce"
  param {
    lr_mult: 1.0
    decay_mult: 1.0
  }
  convolution_param {
    num_output: 512
    bias_term: false
    pad: 2
    kernel_size: 3
    stride: 1
    weight_filler {
      type: "gaussian"
      std: 0.00999999977648
    }
    dilation: 2
  }
}
layer {
  name: "conv4_3_conv_reduce_bn"
  type: "BatchNorm"
  bottom: "conv4_3_conv_reduce"
  top: "conv4_3_conv_reduce"
  param {
    lr_mult: 0.0
    decay_mult: 0.0
  }
  param {
    lr_mult: 0.0
    decay_mult: 0.0
  }
  param {
    lr_mult: 0.0
    decay_mult: 0.0
  }
  batch_norm_param {
    use_global_stats: false
    eps: 0.0010000000475
  }
}
layer {
  name: "conv4_3_conv_reduce_scale"
  type: "Scale"
  bottom: "conv4_3_conv_reduce"
  top: "conv4_3_conv_reduce"
  param {
    lr_mult: 1.0
    decay_mult: 0.0
  }
  param {
    lr_mult: 1.0
    decay_mult: 0.0
  }
  scale_param {
    filler {
      type: "constant"
      value: 1.0
    }
    bias_term: true
    bias_filler {
      type: "constant"
      value: 0.0
    }
  }
}
layer {
  name: "conv4_3_conv_reduce_relu"
  type: "ReLU"
  bottom: "conv4_3_conv_reduce"
  top: "conv4_3_conv_reduce"
}
layer {
  name: "conv4_3_resize"
  type: "Deconvolution"
  bottom: "conv4_3_conv_reduce"
  top: "conv4_3_resize"
  convolution_param {
    num_output: 2
    bias_term: false
    pad: 4
    kernel_size: 16
    group: 2
    stride: 8
    weight_filler {
      type: "bilinear"
    }
  }
}
layer {
  name: "conv4_3_conv_3x3_"
  type: "Convolution"
  bottom: "conv4_3_resize"
  top: "conv4_3_conv_3x3_"
  param {
    lr_mult: 1.0
    decay_mult: 1.0
  }
  convolution_param {
    num_output: 2
    bias_term: false
    pad: 2
    kernel_size: 3
    stride: 1
    weight_filler {
      type: "gaussian"
      std: 0.00999999977648
    }
    dilation: 2
  }
}
layer {
  name: "conv4_3_conv_3x3__bn"
  type: "BatchNorm"
  bottom: "conv4_3_conv_3x3_"
  top: "conv4_3_conv_3x3_"
  param {
    lr_mult: 0.0
    decay_mult: 0.0
  }
  param {
    lr_mult: 0.0
    decay_mult: 0.0
  }
  param {
    lr_mult: 0.0
    decay_mult: 0.0
  }
  batch_norm_param {
    use_global_stats: false
    eps: 0.0010000000475
  }
}
layer {
  name: "conv4_3_conv_3x3__scale"
  type: "Scale"
  bottom: "conv4_3_conv_3x3_"
  top: "conv4_3_conv_3x3_"
  param {
    lr_mult: 1.0
    decay_mult: 0.0
  }
  param {
    lr_mult: 1.0
    decay_mult: 0.0
  }
  scale_param {
    filler {
      type: "constant"
      value: 1.0
    }
    bias_term: true
    bias_filler {
      type: "constant"
      value: 0.0
    }
  }
}
layer {
  name: "conv4_3_conv_3x3__relu"
  type: "ReLU"
  bottom: "conv4_3_conv_3x3_"
  top: "conv4_3_conv_3x3_"
}
layer {
  name: "conv4_3_conv_3x3_1"
  type: "Convolution"
  bottom: "conv4_3_conv_3x3_"
  top: "conv4_3_conv_3x3_1"
  param {
    lr_mult: 1.0
    decay_mult: 1.0
  }
  param {
    lr_mult: 2.0
    decay_mult: 0.0
  }
  convolution_param {
    num_output: 2
    pad: 2
    kernel_size: 3
    stride: 1
    weight_filler {
      type: "xavier"
    }
    bias_filler {
      type: "constant"
      value: 0.0
    }
    dilation: 2
  }
}
layer {
  name: "conv4_3_softmax_"
  type: "Softmax"
  bottom: "conv4_3_conv_3x3_1"
  top: "conv4_3_softmax_"
}
layer {
  name: "Slice1"
  type: "Slice"
  bottom: "conv4_3_softmax_"
  top: "Slice1"
  top: "Slice2"
  slice_param {
    slice_point: 1
    axis: 1
  }
}
layer {
  name: "conv4_3_silence_"
  type: "Silence"
  bottom: "Slice1"
}
layer {
  name: "conv4_3_concat"
  type: "Eltwise"
  bottom: "conv3_3_downsample"
  bottom: "fc7_upsample"
  bottom: "conv4_3_inception"
  top: "conv4_3_concat"
}
layer {
  name: "conv4_3_mask_resize"
  type: "MaskResize"
  bottom: "Slice2"
  top: "conv4_3_mask_resize"
  mask_resize_param {
    output_height: 1
    output_width: 1
    factor_height: 0.125
    factor_width: 0.125
  }
}
layer {
  name: "conv4_3_masked_inception"
  type: "MaskPooling"
  bottom: "conv4_3_concat"
  bottom: "conv4_3_mask_resize"
  top: "conv4_3_masked_inception"
  propagate_down: true
  propagate_down: true
}
layer {
  name: "conv4_3_masked"
  type: "Convolution"
  bottom: "conv4_3_masked_inception"
  top: "conv4_3_masked"
  param {
    lr_mult: 1.0
    decay_mult: 1.0
  }
  convolution_param {
    num_output: 512
    bias_term: false
    pad: 2
    kernel_size: 3
    stride: 1
    weight_filler {
      type: "gaussian"
      std: 0.00999999977648
    }
    dilation: 2
  }
}
layer {
  name: "conv4_3_masked_bn"
  type: "BatchNorm"
  bottom: "conv4_3_masked"
  top: "conv4_3_masked"
  param {
    lr_mult: 0.0
    decay_mult: 0.0
  }
  param {
    lr_mult: 0.0
    decay_mult: 0.0
  }
  param {
    lr_mult: 0.0
    decay_mult: 0.0
  }
  batch_norm_param {
    use_global_stats: false
    eps: 0.0010000000475
  }
}
layer {
  name: "conv4_3_masked_scale"
  type: "Scale"
  bottom: "conv4_3_masked"
  top: "conv4_3_masked"
  param {
    lr_mult: 1.0
    decay_mult: 0.0
  }
  param {
    lr_mult: 1.0
    decay_mult: 0.0
  }
  scale_param {
    filler {
      type: "constant"
      value: 1.0
    }
    bias_term: true
    bias_filler {
      type: "constant"
      value: 0.0
    }
  }
}
layer {
  name: "conv4_3_masked_relu"
  type: "ReLU"
  bottom: "conv4_3_masked"
  top: "conv4_3_masked"
}
layer {
  name: "fc7_concat"
  type: "Eltwise"
  bottom: "conv4_3_downsample"
  bottom: "Conv6_2_upsample"
  bottom: "fc7_inception"
  top: "fc7_concat"
}
layer {
  name: "fc7_mask_resize"
  type: "MaskResize"
  bottom: "Slice2"
  top: "fc7_mask_resize"
  mask_resize_param {
    output_height: 1
    output_width: 1
    factor_height: 0.0625
    factor_width: 0.0625
  }
}
layer {
  name: "fc7_masked_inception"
  type: "MaskPooling"
  bottom: "fc7_concat"
  bottom: "fc7_mask_resize"
  top: "fc7_masked_inception"
  propagate_down: true
  propagate_down: true
}
layer {
  name: "fc7_masked"
  type: "Convolution"
  bottom: "fc7_masked_inception"
  top: "fc7_masked"
  param {
    lr_mult: 1.0
    decay_mult: 1.0
  }
  convolution_param {
    num_output: 512
    bias_term: false
    pad: 2
    kernel_size: 3
    stride: 1
    weight_filler {
      type: "gaussian"
      std: 0.00999999977648
    }
    dilation: 2
  }
}
layer {
  name: "fc7_masked_bn"
  type: "BatchNorm"
  bottom: "fc7_masked"
  top: "fc7_masked"
  param {
    lr_mult: 0.0
    decay_mult: 0.0
  }
  param {
    lr_mult: 0.0
    decay_mult: 0.0
  }
  param {
    lr_mult: 0.0
    decay_mult: 0.0
  }
  batch_norm_param {
    use_global_stats: false
    eps: 0.0010000000475
  }
}
layer {
  name: "fc7_masked_scale"
  type: "Scale"
  bottom: "fc7_masked"
  top: "fc7_masked"
  param {
    lr_mult: 1.0
    decay_mult: 0.0
  }
  param {
    lr_mult: 1.0
    decay_mult: 0.0
  }
  scale_param {
    filler {
      type: "constant"
      value: 1.0
    }
    bias_term: true
    bias_filler {
      type: "constant"
      value: 0.0
    }
  }
}
layer {
  name: "fc7_masked_relu"
  type: "ReLU"
  bottom: "fc7_masked"
  top: "fc7_masked"
}
layer {
  name: "Conv6_2_concat"
  type: "Eltwise"
  bottom: "fc7_downsample"
  bottom: "Conv7_2_upsample"
  bottom: "Conv6_2"
  top: "Conv6_2_concat"
}
layer {
  name: "Conv6_2_mask_resize"
  type: "MaskResize"
  bottom: "Slice2"
  top: "Conv6_2_mask_resize"
  mask_resize_param {
    output_height: 1
    output_width: 1
    factor_height: 0.03125
    factor_width: 0.03125
  }
}
layer {
  name: "Conv6_2_masked_inception"
  type: "MaskPooling"
  bottom: "Conv6_2_concat"
  bottom: "Conv6_2_mask_resize"
  top: "Conv6_2_masked_inception"
  propagate_down: true
  propagate_down: true
}
layer {
  name: "Conv6_2_masked"
  type: "Convolution"
  bottom: "Conv6_2_masked_inception"
  top: "Conv6_2_masked"
  param {
    lr_mult: 1.0
    decay_mult: 1.0
  }
  convolution_param {
    num_output: 512
    bias_term: false
    pad: 2
    kernel_size: 3
    stride: 1
    weight_filler {
      type: "gaussian"
      std: 0.00999999977648
    }
    dilation: 2
  }
}
layer {
  name: "Conv6_2_masked_bn"
  type: "BatchNorm"
  bottom: "Conv6_2_masked"
  top: "Conv6_2_masked"
  param {
    lr_mult: 0.0
    decay_mult: 0.0
  }
  param {
    lr_mult: 0.0
    decay_mult: 0.0
  }
  param {
    lr_mult: 0.0
    decay_mult: 0.0
  }
  batch_norm_param {
    use_global_stats: false
    eps: 0.0010000000475
  }
}
layer {
  name: "Conv6_2_masked_scale"
  type: "Scale"
  bottom: "Conv6_2_masked"
  top: "Conv6_2_masked"
  param {
    lr_mult: 1.0
    decay_mult: 0.0
  }
  param {
    lr_mult: 1.0
    decay_mult: 0.0
  }
  scale_param {
    filler {
      type: "constant"
      value: 1.0
    }
    bias_term: true
    bias_filler {
      type: "constant"
      value: 0.0
    }
  }
}
layer {
  name: "Conv6_2_masked_relu"
  type: "ReLU"
  bottom: "Conv6_2_masked"
  top: "Conv6_2_masked"
}
layer {
  name: "conv4_3_masked_norm"
  type: "Normalize"
  bottom: "conv4_3_masked"
  top: "conv4_3_masked_norm"
  norm_param {
    across_spatial: false
    scale_filler {
      type: "constant"
      value: 20.0
    }
    channel_shared: false
  }
}
layer {
  name: "resconv4_3_masked_norm_branch1"
  type: "Convolution"
  bottom: "conv4_3_masked_norm"
  top: "resconv4_3_masked_norm_branch1"
  param {
    lr_mult: 1.0
    decay_mult: 1.0
  }
  convolution_param {
    num_output: 512
    bias_term: false
    pad: 0
    kernel_size: 1
    stride: 1
    weight_filler {
      type: "gaussian"
      std: 0.00999999977648
    }
  }
}
layer {
  name: "bnconv4_3_masked_norm_branch1"
  type: "BatchNorm"
  bottom: "resconv4_3_masked_norm_branch1"
  top: "resconv4_3_masked_norm_branch1"
  param {
    lr_mult: 0.0
    decay_mult: 0.0
  }
  param {
    lr_mult: 0.0
    decay_mult: 0.0
  }
  param {
    lr_mult: 0.0
    decay_mult: 0.0
  }
  batch_norm_param {
    use_global_stats: false
    eps: 0.0010000000475
  }
}
layer {
  name: "scaleconv4_3_masked_norm_branch1"
  type: "Scale"
  bottom: "resconv4_3_masked_norm_branch1"
  top: "resconv4_3_masked_norm_branch1"
  param {
    lr_mult: 1.0
    decay_mult: 0.0
  }
  param {
    lr_mult: 1.0
    decay_mult: 0.0
  }
  scale_param {
    filler {
      type: "constant"
      value: 1.0
    }
    bias_term: true
    bias_filler {
      type: "constant"
      value: 0.0
    }
  }
}
layer {
  name: "resconv4_3_masked_norm_branch2a"
  type: "Convolution"
  bottom: "conv4_3_masked_norm"
  top: "resconv4_3_masked_norm_branch2a"
  param {
    lr_mult: 1.0
    decay_mult: 1.0
  }
  convolution_param {
    num_output: 256
    bias_term: false
    pad: 0
    kernel_size: 1
    stride: 1
    weight_filler {
      type: "gaussian"
      std: 0.00999999977648
    }
  }
}
layer {
  name: "bnconv4_3_masked_norm_branch2a"
  type: "BatchNorm"
  bottom: "resconv4_3_masked_norm_branch2a"
  top: "resconv4_3_masked_norm_branch2a"
  param {
    lr_mult: 0.0
    decay_mult: 0.0
  }
  param {
    lr_mult: 0.0
    decay_mult: 0.0
  }
  param {
    lr_mult: 0.0
    decay_mult: 0.0
  }
  batch_norm_param {
    use_global_stats: false
    eps: 0.0010000000475
  }
}
layer {
  name: "scaleconv4_3_masked_norm_branch2a"
  type: "Scale"
  bottom: "resconv4_3_masked_norm_branch2a"
  top: "resconv4_3_masked_norm_branch2a"
  param {
    lr_mult: 1.0
    decay_mult: 0.0
  }
  param {
    lr_mult: 1.0
    decay_mult: 0.0
  }
  scale_param {
    filler {
      type: "constant"
      value: 1.0
    }
    bias_term: true
    bias_filler {
      type: "constant"
      value: 0.0
    }
  }
}
layer {
  name: "resconv4_3_masked_norm_branch2a_relu"
  type: "ReLU"
  bottom: "resconv4_3_masked_norm_branch2a"
  top: "resconv4_3_masked_norm_branch2a"
}
layer {
  name: "resconv4_3_masked_norm_branch2b"
  type: "Convolution"
  bottom: "resconv4_3_masked_norm_branch2a"
  top: "resconv4_3_masked_norm_branch2b"
  param {
    lr_mult: 1.0
    decay_mult: 1.0
  }
  convolution_param {
    num_output: 256
    bias_term: false
    pad: 1
    kernel_size: 3
    stride: 1
    weight_filler {
      type: "gaussian"
      std: 0.00999999977648
    }
  }
}
layer {
  name: "bnconv4_3_masked_norm_branch2b"
  type: "BatchNorm"
  bottom: "resconv4_3_masked_norm_branch2b"
  top: "resconv4_3_masked_norm_branch2b"
  param {
    lr_mult: 0.0
    decay_mult: 0.0
  }
  param {
    lr_mult: 0.0
    decay_mult: 0.0
  }
  param {
    lr_mult: 0.0
    decay_mult: 0.0
  }
  batch_norm_param {
    use_global_stats: false
    eps: 0.0010000000475
  }
}
layer {
  name: "scaleconv4_3_masked_norm_branch2b"
  type: "Scale"
  bottom: "resconv4_3_masked_norm_branch2b"
  top: "resconv4_3_masked_norm_branch2b"
  param {
    lr_mult: 1.0
    decay_mult: 0.0
  }
  param {
    lr_mult: 1.0
    decay_mult: 0.0
  }
  scale_param {
    filler {
      type: "constant"
      value: 1.0
    }
    bias_term: true
    bias_filler {
      type: "constant"
      value: 0.0
    }
  }
}
layer {
  name: "resconv4_3_masked_norm_branch2b_relu"
  type: "ReLU"
  bottom: "resconv4_3_masked_norm_branch2b"
  top: "resconv4_3_masked_norm_branch2b"
}
layer {
  name: "resconv4_3_masked_norm_branch2c"
  type: "Convolution"
  bottom: "resconv4_3_masked_norm_branch2b"
  top: "resconv4_3_masked_norm_branch2c"
  param {
    lr_mult: 1.0
    decay_mult: 1.0
  }
  convolution_param {
    num_output: 512
    bias_term: false
    pad: 0
    kernel_size: 1
    stride: 1
    weight_filler {
      type: "gaussian"
      std: 0.00999999977648
    }
  }
}
layer {
  name: "bnconv4_3_masked_norm_branch2c"
  type: "BatchNorm"
  bottom: "resconv4_3_masked_norm_branch2c"
  top: "resconv4_3_masked_norm_branch2c"
  param {
    lr_mult: 0.0
    decay_mult: 0.0
  }
  param {
    lr_mult: 0.0
    decay_mult: 0.0
  }
  param {
    lr_mult: 0.0
    decay_mult: 0.0
  }
  batch_norm_param {
    use_global_stats: false
    eps: 0.0010000000475
  }
}
layer {
  name: "scaleconv4_3_masked_norm_branch2c"
  type: "Scale"
  bottom: "resconv4_3_masked_norm_branch2c"
  top: "resconv4_3_masked_norm_branch2c"
  param {
    lr_mult: 1.0
    decay_mult: 0.0
  }
  param {
    lr_mult: 1.0
    decay_mult: 0.0
  }
  scale_param {
    filler {
      type: "constant"
      value: 1.0
    }
    bias_term: true
    bias_filler {
      type: "constant"
      value: 0.0
    }
  }
}
layer {
  name: "resconv4_3_masked_norm"
  type: "Eltwise"
  bottom: "resconv4_3_masked_norm_branch1"
  bottom: "resconv4_3_masked_norm_branch2c"
  top: "resconv4_3_masked_norm"
}
layer {
  name: "resconv4_3_masked_norm_relu"
  type: "ReLU"
  bottom: "resconv4_3_masked_norm"
  top: "resconv4_3_masked_norm"
}
layer {
  name: "resconv4_3_masked_norm_mbox_loc"
  type: "Convolution"
  bottom: "resconv4_3_masked_norm"
  top: "resconv4_3_masked_norm_mbox_loc"
  param {
    lr_mult: 1.0
    decay_mult: 1.0
  }
  param {
    lr_mult: 2.0
    decay_mult: 0.0
  }
  convolution_param {
    num_output: 204
    pad: 1
    kernel_size: 3
    stride: 1
    weight_filler {
      type: "xavier"
    }
    bias_filler {
      type: "constant"
      value: 0.0
    }
  }
}
layer {
  name: "resconv4_3_masked_norm_mbox_loc_perm"
  type: "Permute"
  bottom: "resconv4_3_masked_norm_mbox_loc"
  top: "resconv4_3_masked_norm_mbox_loc_perm"
  permute_param {
    order: 0
    order: 2
    order: 3
    order: 1
  }
}
layer {
  name: "resconv4_3_masked_norm_mbox_loc_flat"
  type: "Flatten"
  bottom: "resconv4_3_masked_norm_mbox_loc_perm"
  top: "resconv4_3_masked_norm_mbox_loc_flat"
  flatten_param {
    axis: 1
  }
}
layer {
  name: "resconv4_3_masked_norm_mbox_conf"
  type: "Convolution"
  bottom: "resconv4_3_masked_norm"
  top: "resconv4_3_masked_norm_mbox_conf"
  param {
    lr_mult: 1.0
    decay_mult: 1.0
  }
  param {
    lr_mult: 2.0
    decay_mult: 0.0
  }
  convolution_param {
    num_output: 102
    pad: 1
    kernel_size: 3
    stride: 1
    weight_filler {
      type: "xavier"
    }
    bias_filler {
      type: "constant"
      value: 0.0
    }
  }
}
layer {
  name: "resconv4_3_masked_norm_mbox_conf_perm"
  type: "Permute"
  bottom: "resconv4_3_masked_norm_mbox_conf"
  top: "resconv4_3_masked_norm_mbox_conf_perm"
  permute_param {
    order: 0
    order: 2
    order: 3
    order: 1
  }
}
layer {
  name: "resconv4_3_masked_norm_mbox_conf_flat"
  type: "Flatten"
  bottom: "resconv4_3_masked_norm_mbox_conf_perm"
  top: "resconv4_3_masked_norm_mbox_conf_flat"
  flatten_param {
    axis: 1
  }
}
layer {
  name: "resconv4_3_masked_norm_mbox_priorbox"
  type: "PriorBox"
  bottom: "resconv4_3_masked_norm"
  bottom: "data"
  top: "resconv4_3_masked_norm_mbox_priorbox"
  prior_box_param {
    min_size: 7.67999982834
    min_size: 17.9200000763
    min_size: 28.1599998474
    aspect_ratio: 0.5
    aspect_ratio: 2.0
    aspect_ratio: 3.0
    aspect_ratio: 4.0
    aspect_ratio: 5.0
    aspect_ratio: 7.0
    aspect_ratio: 9.0
    aspect_ratio: 11.0
    flip: true
    clip: false
    variance: 0.10000000149
    variance: 0.10000000149
    variance: 0.20000000298
    variance: 0.20000000298
    step: 8.0
    offset: 0.5
  }
}
layer {
  name: "resfc7_masked_branch1"
  type: "Convolution"
  bottom: "fc7_masked"
  top: "resfc7_masked_branch1"
  param {
    lr_mult: 1.0
    decay_mult: 1.0
  }
  convolution_param {
    num_output: 512
    bias_term: false
    pad: 0
    kernel_size: 1
    stride: 1
    weight_filler {
      type: "gaussian"
      std: 0.00999999977648
    }
  }
}
layer {
  name: "bnfc7_masked_branch1"
  type: "BatchNorm"
  bottom: "resfc7_masked_branch1"
  top: "resfc7_masked_branch1"
  param {
    lr_mult: 0.0
    decay_mult: 0.0
  }
  param {
    lr_mult: 0.0
    decay_mult: 0.0
  }
  param {
    lr_mult: 0.0
    decay_mult: 0.0
  }
  batch_norm_param {
    use_global_stats: false
    eps: 0.0010000000475
  }
}
layer {
  name: "scalefc7_masked_branch1"
  type: "Scale"
  bottom: "resfc7_masked_branch1"
  top: "resfc7_masked_branch1"
  param {
    lr_mult: 1.0
    decay_mult: 0.0
  }
  param {
    lr_mult: 1.0
    decay_mult: 0.0
  }
  scale_param {
    filler {
      type: "constant"
      value: 1.0
    }
    bias_term: true
    bias_filler {
      type: "constant"
      value: 0.0
    }
  }
}
layer {
  name: "resfc7_masked_branch2a"
  type: "Convolution"
  bottom: "fc7_masked"
  top: "resfc7_masked_branch2a"
  param {
    lr_mult: 1.0
    decay_mult: 1.0
  }
  convolution_param {
    num_output: 256
    bias_term: false
    pad: 0
    kernel_size: 1
    stride: 1
    weight_filler {
      type: "gaussian"
      std: 0.00999999977648
    }
  }
}
layer {
  name: "bnfc7_masked_branch2a"
  type: "BatchNorm"
  bottom: "resfc7_masked_branch2a"
  top: "resfc7_masked_branch2a"
  param {
    lr_mult: 0.0
    decay_mult: 0.0
  }
  param {
    lr_mult: 0.0
    decay_mult: 0.0
  }
  param {
    lr_mult: 0.0
    decay_mult: 0.0
  }
  batch_norm_param {
    use_global_stats: false
    eps: 0.0010000000475
  }
}
layer {
  name: "scalefc7_masked_branch2a"
  type: "Scale"
  bottom: "resfc7_masked_branch2a"
  top: "resfc7_masked_branch2a"
  param {
    lr_mult: 1.0
    decay_mult: 0.0
  }
  param {
    lr_mult: 1.0
    decay_mult: 0.0
  }
  scale_param {
    filler {
      type: "constant"
      value: 1.0
    }
    bias_term: true
    bias_filler {
      type: "constant"
      value: 0.0
    }
  }
}
layer {
  name: "resfc7_masked_branch2a_relu"
  type: "ReLU"
  bottom: "resfc7_masked_branch2a"
  top: "resfc7_masked_branch2a"
}
layer {
  name: "resfc7_masked_branch2b"
  type: "Convolution"
  bottom: "resfc7_masked_branch2a"
  top: "resfc7_masked_branch2b"
  param {
    lr_mult: 1.0
    decay_mult: 1.0
  }
  convolution_param {
    num_output: 256
    bias_term: false
    pad: 1
    kernel_size: 3
    stride: 1
    weight_filler {
      type: "gaussian"
      std: 0.00999999977648
    }
  }
}
layer {
  name: "bnfc7_masked_branch2b"
  type: "BatchNorm"
  bottom: "resfc7_masked_branch2b"
  top: "resfc7_masked_branch2b"
  param {
    lr_mult: 0.0
    decay_mult: 0.0
  }
  param {
    lr_mult: 0.0
    decay_mult: 0.0
  }
  param {
    lr_mult: 0.0
    decay_mult: 0.0
  }
  batch_norm_param {
    use_global_stats: false
    eps: 0.0010000000475
  }
}
layer {
  name: "scalefc7_masked_branch2b"
  type: "Scale"
  bottom: "resfc7_masked_branch2b"
  top: "resfc7_masked_branch2b"
  param {
    lr_mult: 1.0
    decay_mult: 0.0
  }
  param {
    lr_mult: 1.0
    decay_mult: 0.0
  }
  scale_param {
    filler {
      type: "constant"
      value: 1.0
    }
    bias_term: true
    bias_filler {
      type: "constant"
      value: 0.0
    }
  }
}
layer {
  name: "resfc7_masked_branch2b_relu"
  type: "ReLU"
  bottom: "resfc7_masked_branch2b"
  top: "resfc7_masked_branch2b"
}
layer {
  name: "resfc7_masked_branch2c"
  type: "Convolution"
  bottom: "resfc7_masked_branch2b"
  top: "resfc7_masked_branch2c"
  param {
    lr_mult: 1.0
    decay_mult: 1.0
  }
  convolution_param {
    num_output: 512
    bias_term: false
    pad: 0
    kernel_size: 1
    stride: 1
    weight_filler {
      type: "gaussian"
      std: 0.00999999977648
    }
  }
}
layer {
  name: "bnfc7_masked_branch2c"
  type: "BatchNorm"
  bottom: "resfc7_masked_branch2c"
  top: "resfc7_masked_branch2c"
  param {
    lr_mult: 0.0
    decay_mult: 0.0
  }
  param {
    lr_mult: 0.0
    decay_mult: 0.0
  }
  param {
    lr_mult: 0.0
    decay_mult: 0.0
  }
  batch_norm_param {
    use_global_stats: false
    eps: 0.0010000000475
  }
}
layer {
  name: "scalefc7_masked_branch2c"
  type: "Scale"
  bottom: "resfc7_masked_branch2c"
  top: "resfc7_masked_branch2c"
  param {
    lr_mult: 1.0
    decay_mult: 0.0
  }
  param {
    lr_mult: 1.0
    decay_mult: 0.0
  }
  scale_param {
    filler {
      type: "constant"
      value: 1.0
    }
    bias_term: true
    bias_filler {
      type: "constant"
      value: 0.0
    }
  }
}
layer {
  name: "resfc7_masked"
  type: "Eltwise"
  bottom: "resfc7_masked_branch1"
  bottom: "resfc7_masked_branch2c"
  top: "resfc7_masked"
}
layer {
  name: "resfc7_masked_relu"
  type: "ReLU"
  bottom: "resfc7_masked"
  top: "resfc7_masked"
}
layer {
  name: "resfc7_masked_mbox_loc"
  type: "Convolution"
  bottom: "resfc7_masked"
  top: "resfc7_masked_mbox_loc"
  param {
    lr_mult: 1.0
    decay_mult: 1.0
  }
  param {
    lr_mult: 2.0
    decay_mult: 0.0
  }
  convolution_param {
    num_output: 204
    pad: 1
    kernel_size: 3
    stride: 1
    weight_filler {
      type: "xavier"
    }
    bias_filler {
      type: "constant"
      value: 0.0
    }
  }
}
layer {
  name: "resfc7_masked_mbox_loc_perm"
  type: "Permute"
  bottom: "resfc7_masked_mbox_loc"
  top: "resfc7_masked_mbox_loc_perm"
  permute_param {
    order: 0
    order: 2
    order: 3
    order: 1
  }
}
layer {
  name: "resfc7_masked_mbox_loc_flat"
  type: "Flatten"
  bottom: "resfc7_masked_mbox_loc_perm"
  top: "resfc7_masked_mbox_loc_flat"
  flatten_param {
    axis: 1
  }
}
layer {
  name: "resfc7_masked_mbox_conf"
  type: "Convolution"
  bottom: "resfc7_masked"
  top: "resfc7_masked_mbox_conf"
  param {
    lr_mult: 1.0
    decay_mult: 1.0
  }
  param {
    lr_mult: 2.0
    decay_mult: 0.0
  }
  convolution_param {
    num_output: 102
    pad: 1
    kernel_size: 3
    stride: 1
    weight_filler {
      type: "xavier"
    }
    bias_filler {
      type: "constant"
      value: 0.0
    }
  }
}
layer {
  name: "resfc7_masked_mbox_conf_perm"
  type: "Permute"
  bottom: "resfc7_masked_mbox_conf"
  top: "resfc7_masked_mbox_conf_perm"
  permute_param {
    order: 0
    order: 2
    order: 3
    order: 1
  }
}
layer {
  name: "resfc7_masked_mbox_conf_flat"
  type: "Flatten"
  bottom: "resfc7_masked_mbox_conf_perm"
  top: "resfc7_masked_mbox_conf_flat"
  flatten_param {
    axis: 1
  }
}
layer {
  name: "resfc7_masked_mbox_priorbox"
  type: "PriorBox"
  bottom: "resfc7_masked"
  bottom: "data"
  top: "resfc7_masked_mbox_priorbox"
  prior_box_param {
    min_size: 38.4000015259
    min_size: 48.6399993896
    min_size: 58.8800010681
    aspect_ratio: 0.5
    aspect_ratio: 2.0
    aspect_ratio: 3.0
    aspect_ratio: 4.0
    aspect_ratio: 5.0
    aspect_ratio: 7.0
    aspect_ratio: 9.0
    aspect_ratio: 11.0
    flip: true
    clip: false
    variance: 0.10000000149
    variance: 0.10000000149
    variance: 0.20000000298
    variance: 0.20000000298
    step: 16.0
    offset: 0.5
  }
}
layer {
  name: "resConv6_2_masked_branch1"
  type: "Convolution"
  bottom: "Conv6_2_masked"
  top: "resConv6_2_masked_branch1"
  param {
    lr_mult: 1.0
    decay_mult: 1.0
  }
  convolution_param {
    num_output: 512
    bias_term: false
    pad: 0
    kernel_size: 1
    stride: 1
    weight_filler {
      type: "gaussian"
      std: 0.00999999977648
    }
  }
}
layer {
  name: "bnConv6_2_masked_branch1"
  type: "BatchNorm"
  bottom: "resConv6_2_masked_branch1"
  top: "resConv6_2_masked_branch1"
  param {
    lr_mult: 0.0
    decay_mult: 0.0
  }
  param {
    lr_mult: 0.0
    decay_mult: 0.0
  }
  param {
    lr_mult: 0.0
    decay_mult: 0.0
  }
  batch_norm_param {
    use_global_stats: false
    eps: 0.0010000000475
  }
}
layer {
  name: "scaleConv6_2_masked_branch1"
  type: "Scale"
  bottom: "resConv6_2_masked_branch1"
  top: "resConv6_2_masked_branch1"
  param {
    lr_mult: 1.0
    decay_mult: 0.0
  }
  param {
    lr_mult: 1.0
    decay_mult: 0.0
  }
  scale_param {
    filler {
      type: "constant"
      value: 1.0
    }
    bias_term: true
    bias_filler {
      type: "constant"
      value: 0.0
    }
  }
}
layer {
  name: "resConv6_2_masked_branch2a"
  type: "Convolution"
  bottom: "Conv6_2_masked"
  top: "resConv6_2_masked_branch2a"
  param {
    lr_mult: 1.0
    decay_mult: 1.0
  }
  convolution_param {
    num_output: 256
    bias_term: false
    pad: 0
    kernel_size: 1
    stride: 1
    weight_filler {
      type: "gaussian"
      std: 0.00999999977648
    }
  }
}
layer {
  name: "bnConv6_2_masked_branch2a"
  type: "BatchNorm"
  bottom: "resConv6_2_masked_branch2a"
  top: "resConv6_2_masked_branch2a"
  param {
    lr_mult: 0.0
    decay_mult: 0.0
  }
  param {
    lr_mult: 0.0
    decay_mult: 0.0
  }
  param {
    lr_mult: 0.0
    decay_mult: 0.0
  }
  batch_norm_param {
    use_global_stats: false
    eps: 0.0010000000475
  }
}
layer {
  name: "scaleConv6_2_masked_branch2a"
  type: "Scale"
  bottom: "resConv6_2_masked_branch2a"
  top: "resConv6_2_masked_branch2a"
  param {
    lr_mult: 1.0
    decay_mult: 0.0
  }
  param {
    lr_mult: 1.0
    decay_mult: 0.0
  }
  scale_param {
    filler {
      type: "constant"
      value: 1.0
    }
    bias_term: true
    bias_filler {
      type: "constant"
      value: 0.0
    }
  }
}
layer {
  name: "resConv6_2_masked_branch2a_relu"
  type: "ReLU"
  bottom: "resConv6_2_masked_branch2a"
  top: "resConv6_2_masked_branch2a"
}
layer {
  name: "resConv6_2_masked_branch2b"
  type: "Convolution"
  bottom: "resConv6_2_masked_branch2a"
  top: "resConv6_2_masked_branch2b"
  param {
    lr_mult: 1.0
    decay_mult: 1.0
  }
  convolution_param {
    num_output: 256
    bias_term: false
    pad: 1
    kernel_size: 3
    stride: 1
    weight_filler {
      type: "gaussian"
      std: 0.00999999977648
    }
  }
}
layer {
  name: "bnConv6_2_masked_branch2b"
  type: "BatchNorm"
  bottom: "resConv6_2_masked_branch2b"
  top: "resConv6_2_masked_branch2b"
  param {
    lr_mult: 0.0
    decay_mult: 0.0
  }
  param {
    lr_mult: 0.0
    decay_mult: 0.0
  }
  param {
    lr_mult: 0.0
    decay_mult: 0.0
  }
  batch_norm_param {
    use_global_stats: false
    eps: 0.0010000000475
  }
}
layer {
  name: "scaleConv6_2_masked_branch2b"
  type: "Scale"
  bottom: "resConv6_2_masked_branch2b"
  top: "resConv6_2_masked_branch2b"
  param {
    lr_mult: 1.0
    decay_mult: 0.0
  }
  param {
    lr_mult: 1.0
    decay_mult: 0.0
  }
  scale_param {
    filler {
      type: "constant"
      value: 1.0
    }
    bias_term: true
    bias_filler {
      type: "constant"
      value: 0.0
    }
  }
}
layer {
  name: "resConv6_2_masked_branch2b_relu"
  type: "ReLU"
  bottom: "resConv6_2_masked_branch2b"
  top: "resConv6_2_masked_branch2b"
}
layer {
  name: "resConv6_2_masked_branch2c"
  type: "Convolution"
  bottom: "resConv6_2_masked_branch2b"
  top: "resConv6_2_masked_branch2c"
  param {
    lr_mult: 1.0
    decay_mult: 1.0
  }
  convolution_param {
    num_output: 512
    bias_term: false
    pad: 0
    kernel_size: 1
    stride: 1
    weight_filler {
      type: "gaussian"
      std: 0.00999999977648
    }
  }
}
layer {
  name: "bnConv6_2_masked_branch2c"
  type: "BatchNorm"
  bottom: "resConv6_2_masked_branch2c"
  top: "resConv6_2_masked_branch2c"
  param {
    lr_mult: 0.0
    decay_mult: 0.0
  }
  param {
    lr_mult: 0.0
    decay_mult: 0.0
  }
  param {
    lr_mult: 0.0
    decay_mult: 0.0
  }
  batch_norm_param {
    use_global_stats: false
    eps: 0.0010000000475
  }
}
layer {
  name: "scaleConv6_2_masked_branch2c"
  type: "Scale"
  bottom: "resConv6_2_masked_branch2c"
  top: "resConv6_2_masked_branch2c"
  param {
    lr_mult: 1.0
    decay_mult: 0.0
  }
  param {
    lr_mult: 1.0
    decay_mult: 0.0
  }
  scale_param {
    filler {
      type: "constant"
      value: 1.0
    }
    bias_term: true
    bias_filler {
      type: "constant"
      value: 0.0
    }
  }
}
layer {
  name: "resConv6_2_masked"
  type: "Eltwise"
  bottom: "resConv6_2_masked_branch1"
  bottom: "resConv6_2_masked_branch2c"
  top: "resConv6_2_masked"
}
layer {
  name: "resConv6_2_masked_relu"
  type: "ReLU"
  bottom: "resConv6_2_masked"
  top: "resConv6_2_masked"
}
layer {
  name: "resConv6_2_masked_mbox_loc"
  type: "Convolution"
  bottom: "resConv6_2_masked"
  top: "resConv6_2_masked_mbox_loc"
  param {
    lr_mult: 1.0
    decay_mult: 1.0
  }
  param {
    lr_mult: 2.0
    decay_mult: 0.0
  }
  convolution_param {
    num_output: 204
    pad: 1
    kernel_size: 3
    stride: 1
    weight_filler {
      type: "xavier"
    }
    bias_filler {
      type: "constant"
      value: 0.0
    }
  }
}
layer {
  name: "resConv6_2_masked_mbox_loc_perm"
  type: "Permute"
  bottom: "resConv6_2_masked_mbox_loc"
  top: "resConv6_2_masked_mbox_loc_perm"
  permute_param {
    order: 0
    order: 2
    order: 3
    order: 1
  }
}
layer {
  name: "resConv6_2_masked_mbox_loc_flat"
  type: "Flatten"
  bottom: "resConv6_2_masked_mbox_loc_perm"
  top: "resConv6_2_masked_mbox_loc_flat"
  flatten_param {
    axis: 1
  }
}
layer {
  name: "resConv6_2_masked_mbox_conf"
  type: "Convolution"
  bottom: "resConv6_2_masked"
  top: "resConv6_2_masked_mbox_conf"
  param {
    lr_mult: 1.0
    decay_mult: 1.0
  }
  param {
    lr_mult: 2.0
    decay_mult: 0.0
  }
  convolution_param {
    num_output: 102
    pad: 1
    kernel_size: 3
    stride: 1
    weight_filler {
      type: "xavier"
    }
    bias_filler {
      type: "constant"
      value: 0.0
    }
  }
}
layer {
  name: "resConv6_2_masked_mbox_conf_perm"
  type: "Permute"
  bottom: "resConv6_2_masked_mbox_conf"
  top: "resConv6_2_masked_mbox_conf_perm"
  permute_param {
    order: 0
    order: 2
    order: 3
    order: 1
  }
}
layer {
  name: "resConv6_2_masked_mbox_conf_flat"
  type: "Flatten"
  bottom: "resConv6_2_masked_mbox_conf_perm"
  top: "resConv6_2_masked_mbox_conf_flat"
  flatten_param {
    axis: 1
  }
}
layer {
  name: "resConv6_2_masked_mbox_priorbox"
  type: "PriorBox"
  bottom: "resConv6_2_masked"
  bottom: "data"
  top: "resConv6_2_masked_mbox_priorbox"
  prior_box_param {
    min_size: 69.1200027466
    min_size: 79.3600006104
    min_size: 89.5999984741
    aspect_ratio: 0.5
    aspect_ratio: 2.0
    aspect_ratio: 3.0
    aspect_ratio: 4.0
    aspect_ratio: 5.0
    aspect_ratio: 7.0
    aspect_ratio: 9.0
    aspect_ratio: 11.0
    flip: true
    clip: false
    variance: 0.10000000149
    variance: 0.10000000149
    variance: 0.20000000298
    variance: 0.20000000298
    step: 32.0
    offset: 0.5
  }
}
layer {
  name: "resConv7_2_branch1"
  type: "Convolution"
  bottom: "Conv7_2"
  top: "resConv7_2_branch1"
  param {
    lr_mult: 1.0
    decay_mult: 1.0
  }
  convolution_param {
    num_output: 512
    bias_term: false
    pad: 0
    kernel_size: 1
    stride: 1
    weight_filler {
      type: "gaussian"
      std: 0.00999999977648
    }
  }
}
layer {
  name: "bnConv7_2_branch1"
  type: "BatchNorm"
  bottom: "resConv7_2_branch1"
  top: "resConv7_2_branch1"
  param {
    lr_mult: 0.0
    decay_mult: 0.0
  }
  param {
    lr_mult: 0.0
    decay_mult: 0.0
  }
  param {
    lr_mult: 0.0
    decay_mult: 0.0
  }
  batch_norm_param {
    use_global_stats: false
    eps: 0.0010000000475
  }
}
layer {
  name: "scaleConv7_2_branch1"
  type: "Scale"
  bottom: "resConv7_2_branch1"
  top: "resConv7_2_branch1"
  param {
    lr_mult: 1.0
    decay_mult: 0.0
  }
  param {
    lr_mult: 1.0
    decay_mult: 0.0
  }
  scale_param {
    filler {
      type: "constant"
      value: 1.0
    }
    bias_term: true
    bias_filler {
      type: "constant"
      value: 0.0
    }
  }
}
layer {
  name: "resConv7_2_branch2a"
  type: "Convolution"
  bottom: "Conv7_2"
  top: "resConv7_2_branch2a"
  param {
    lr_mult: 1.0
    decay_mult: 1.0
  }
  convolution_param {
    num_output: 256
    bias_term: false
    pad: 0
    kernel_size: 1
    stride: 1
    weight_filler {
      type: "gaussian"
      std: 0.00999999977648
    }
  }
}
layer {
  name: "bnConv7_2_branch2a"
  type: "BatchNorm"
  bottom: "resConv7_2_branch2a"
  top: "resConv7_2_branch2a"
  param {
    lr_mult: 0.0
    decay_mult: 0.0
  }
  param {
    lr_mult: 0.0
    decay_mult: 0.0
  }
  param {
    lr_mult: 0.0
    decay_mult: 0.0
  }
  batch_norm_param {
    use_global_stats: false
    eps: 0.0010000000475
  }
}
layer {
  name: "scaleConv7_2_branch2a"
  type: "Scale"
  bottom: "resConv7_2_branch2a"
  top: "resConv7_2_branch2a"
  param {
    lr_mult: 1.0
    decay_mult: 0.0
  }
  param {
    lr_mult: 1.0
    decay_mult: 0.0
  }
  scale_param {
    filler {
      type: "constant"
      value: 1.0
    }
    bias_term: true
    bias_filler {
      type: "constant"
      value: 0.0
    }
  }
}
layer {
  name: "resConv7_2_branch2a_relu"
  type: "ReLU"
  bottom: "resConv7_2_branch2a"
  top: "resConv7_2_branch2a"
}
layer {
  name: "resConv7_2_branch2b"
  type: "Convolution"
  bottom: "resConv7_2_branch2a"
  top: "resConv7_2_branch2b"
  param {
    lr_mult: 1.0
    decay_mult: 1.0
  }
  convolution_param {
    num_output: 256
    bias_term: false
    pad: 1
    kernel_size: 3
    stride: 1
    weight_filler {
      type: "gaussian"
      std: 0.00999999977648
    }
  }
}
layer {
  name: "bnConv7_2_branch2b"
  type: "BatchNorm"
  bottom: "resConv7_2_branch2b"
  top: "resConv7_2_branch2b"
  param {
    lr_mult: 0.0
    decay_mult: 0.0
  }
  param {
    lr_mult: 0.0
    decay_mult: 0.0
  }
  param {
    lr_mult: 0.0
    decay_mult: 0.0
  }
  batch_norm_param {
    use_global_stats: false
    eps: 0.0010000000475
  }
}
layer {
  name: "scaleConv7_2_branch2b"
  type: "Scale"
  bottom: "resConv7_2_branch2b"
  top: "resConv7_2_branch2b"
  param {
    lr_mult: 1.0
    decay_mult: 0.0
  }
  param {
    lr_mult: 1.0
    decay_mult: 0.0
  }
  scale_param {
    filler {
      type: "constant"
      value: 1.0
    }
    bias_term: true
    bias_filler {
      type: "constant"
      value: 0.0
    }
  }
}
layer {
  name: "resConv7_2_branch2b_relu"
  type: "ReLU"
  bottom: "resConv7_2_branch2b"
  top: "resConv7_2_branch2b"
}
layer {
  name: "resConv7_2_branch2c"
  type: "Convolution"
  bottom: "resConv7_2_branch2b"
  top: "resConv7_2_branch2c"
  param {
    lr_mult: 1.0
    decay_mult: 1.0
  }
  convolution_param {
    num_output: 512
    bias_term: false
    pad: 0
    kernel_size: 1
    stride: 1
    weight_filler {
      type: "gaussian"
      std: 0.00999999977648
    }
  }
}
layer {
  name: "bnConv7_2_branch2c"
  type: "BatchNorm"
  bottom: "resConv7_2_branch2c"
  top: "resConv7_2_branch2c"
  param {
    lr_mult: 0.0
    decay_mult: 0.0
  }
  param {
    lr_mult: 0.0
    decay_mult: 0.0
  }
  param {
    lr_mult: 0.0
    decay_mult: 0.0
  }
  batch_norm_param {
    use_global_stats: false
    eps: 0.0010000000475
  }
}
layer {
  name: "scaleConv7_2_branch2c"
  type: "Scale"
  bottom: "resConv7_2_branch2c"
  top: "resConv7_2_branch2c"
  param {
    lr_mult: 1.0
    decay_mult: 0.0
  }
  param {
    lr_mult: 1.0
    decay_mult: 0.0
  }
  scale_param {
    filler {
      type: "constant"
      value: 1.0
    }
    bias_term: true
    bias_filler {
      type: "constant"
      value: 0.0
    }
  }
}
layer {
  name: "resConv7_2"
  type: "Eltwise"
  bottom: "resConv7_2_branch1"
  bottom: "resConv7_2_branch2c"
  top: "resConv7_2"
}
layer {
  name: "resConv7_2_relu"
  type: "ReLU"
  bottom: "resConv7_2"
  top: "resConv7_2"
}
layer {
  name: "resConv7_2_mbox_loc"
  type: "Convolution"
  bottom: "resConv7_2"
  top: "resConv7_2_mbox_loc"
  param {
    lr_mult: 1.0
    decay_mult: 1.0
  }
  param {
    lr_mult: 2.0
    decay_mult: 0.0
  }
  convolution_param {
    num_output: 204
    pad: 1
    kernel_size: 3
    stride: 1
    weight_filler {
      type: "xavier"
    }
    bias_filler {
      type: "constant"
      value: 0.0
    }
  }
}
layer {
  name: "resConv7_2_mbox_loc_perm"
  type: "Permute"
  bottom: "resConv7_2_mbox_loc"
  top: "resConv7_2_mbox_loc_perm"
  permute_param {
    order: 0
    order: 2
    order: 3
    order: 1
  }
}
layer {
  name: "resConv7_2_mbox_loc_flat"
  type: "Flatten"
  bottom: "resConv7_2_mbox_loc_perm"
  top: "resConv7_2_mbox_loc_flat"
  flatten_param {
    axis: 1
  }
}
layer {
  name: "resConv7_2_mbox_conf"
  type: "Convolution"
  bottom: "resConv7_2"
  top: "resConv7_2_mbox_conf"
  param {
    lr_mult: 1.0
    decay_mult: 1.0
  }
  param {
    lr_mult: 2.0
    decay_mult: 0.0
  }
  convolution_param {
    num_output: 102
    pad: 1
    kernel_size: 3
    stride: 1
    weight_filler {
      type: "xavier"
    }
    bias_filler {
      type: "constant"
      value: 0.0
    }
  }
}
layer {
  name: "resConv7_2_mbox_conf_perm"
  type: "Permute"
  bottom: "resConv7_2_mbox_conf"
  top: "resConv7_2_mbox_conf_perm"
  permute_param {
    order: 0
    order: 2
    order: 3
    order: 1
  }
}
layer {
  name: "resConv7_2_mbox_conf_flat"
  type: "Flatten"
  bottom: "resConv7_2_mbox_conf_perm"
  top: "resConv7_2_mbox_conf_flat"
  flatten_param {
    axis: 1
  }
}
layer {
  name: "resConv7_2_mbox_priorbox"
  type: "PriorBox"
  bottom: "resConv7_2"
  bottom: "data"
  top: "resConv7_2_mbox_priorbox"
  prior_box_param {
    min_size: 102.400001526
    min_size: 128.0
    min_size: 153.600006104
    aspect_ratio: 0.5
    aspect_ratio: 2.0
    aspect_ratio: 3.0
    aspect_ratio: 4.0
    aspect_ratio: 5.0
    aspect_ratio: 7.0
    aspect_ratio: 9.0
    aspect_ratio: 11.0
    flip: true
    clip: false
    variance: 0.10000000149
    variance: 0.10000000149
    variance: 0.20000000298
    variance: 0.20000000298
    step: 64.0
    offset: 0.5
  }
}
layer {
  name: "resConv8_2_branch1"
  type: "Convolution"
  bottom: "Conv8_2"
  top: "resConv8_2_branch1"
  param {
    lr_mult: 1.0
    decay_mult: 1.0
  }
  convolution_param {
    num_output: 512
    bias_term: false
    pad: 0
    kernel_size: 1
    stride: 1
    weight_filler {
      type: "gaussian"
      std: 0.00999999977648
    }
  }
}
layer {
  name: "bnConv8_2_branch1"
  type: "BatchNorm"
  bottom: "resConv8_2_branch1"
  top: "resConv8_2_branch1"
  param {
    lr_mult: 0.0
    decay_mult: 0.0
  }
  param {
    lr_mult: 0.0
    decay_mult: 0.0
  }
  param {
    lr_mult: 0.0
    decay_mult: 0.0
  }
  batch_norm_param {
    use_global_stats: false
    eps: 0.0010000000475
  }
}
layer {
  name: "scaleConv8_2_branch1"
  type: "Scale"
  bottom: "resConv8_2_branch1"
  top: "resConv8_2_branch1"
  param {
    lr_mult: 1.0
    decay_mult: 0.0
  }
  param {
    lr_mult: 1.0
    decay_mult: 0.0
  }
  scale_param {
    filler {
      type: "constant"
      value: 1.0
    }
    bias_term: true
    bias_filler {
      type: "constant"
      value: 0.0
    }
  }
}
layer {
  name: "resConv8_2_branch2a"
  type: "Convolution"
  bottom: "Conv8_2"
  top: "resConv8_2_branch2a"
  param {
    lr_mult: 1.0
    decay_mult: 1.0
  }
  convolution_param {
    num_output: 256
    bias_term: false
    pad: 0
    kernel_size: 1
    stride: 1
    weight_filler {
      type: "gaussian"
      std: 0.00999999977648
    }
  }
}
layer {
  name: "bnConv8_2_branch2a"
  type: "BatchNorm"
  bottom: "resConv8_2_branch2a"
  top: "resConv8_2_branch2a"
  param {
    lr_mult: 0.0
    decay_mult: 0.0
  }
  param {
    lr_mult: 0.0
    decay_mult: 0.0
  }
  param {
    lr_mult: 0.0
    decay_mult: 0.0
  }
  batch_norm_param {
    use_global_stats: false
    eps: 0.0010000000475
  }
}
layer {
  name: "scaleConv8_2_branch2a"
  type: "Scale"
  bottom: "resConv8_2_branch2a"
  top: "resConv8_2_branch2a"
  param {
    lr_mult: 1.0
    decay_mult: 0.0
  }
  param {
    lr_mult: 1.0
    decay_mult: 0.0
  }
  scale_param {
    filler {
      type: "constant"
      value: 1.0
    }
    bias_term: true
    bias_filler {
      type: "constant"
      value: 0.0
    }
  }
}
layer {
  name: "resConv8_2_branch2a_relu"
  type: "ReLU"
  bottom: "resConv8_2_branch2a"
  top: "resConv8_2_branch2a"
}
layer {
  name: "resConv8_2_branch2b"
  type: "Convolution"
  bottom: "resConv8_2_branch2a"
  top: "resConv8_2_branch2b"
  param {
    lr_mult: 1.0
    decay_mult: 1.0
  }
  convolution_param {
    num_output: 256
    bias_term: false
    pad: 1
    kernel_size: 3
    stride: 1
    weight_filler {
      type: "gaussian"
      std: 0.00999999977648
    }
  }
}
layer {
  name: "bnConv8_2_branch2b"
  type: "BatchNorm"
  bottom: "resConv8_2_branch2b"
  top: "resConv8_2_branch2b"
  param {
    lr_mult: 0.0
    decay_mult: 0.0
  }
  param {
    lr_mult: 0.0
    decay_mult: 0.0
  }
  param {
    lr_mult: 0.0
    decay_mult: 0.0
  }
  batch_norm_param {
    use_global_stats: false
    eps: 0.0010000000475
  }
}
layer {
  name: "scaleConv8_2_branch2b"
  type: "Scale"
  bottom: "resConv8_2_branch2b"
  top: "resConv8_2_branch2b"
  param {
    lr_mult: 1.0
    decay_mult: 0.0
  }
  param {
    lr_mult: 1.0
    decay_mult: 0.0
  }
  scale_param {
    filler {
      type: "constant"
      value: 1.0
    }
    bias_term: true
    bias_filler {
      type: "constant"
      value: 0.0
    }
  }
}
layer {
  name: "resConv8_2_branch2b_relu"
  type: "ReLU"
  bottom: "resConv8_2_branch2b"
  top: "resConv8_2_branch2b"
}
layer {
  name: "resConv8_2_branch2c"
  type: "Convolution"
  bottom: "resConv8_2_branch2b"
  top: "resConv8_2_branch2c"
  param {
    lr_mult: 1.0
    decay_mult: 1.0
  }
  convolution_param {
    num_output: 512
    bias_term: false
    pad: 0
    kernel_size: 1
    stride: 1
    weight_filler {
      type: "gaussian"
      std: 0.00999999977648
    }
  }
}
layer {
  name: "bnConv8_2_branch2c"
  type: "BatchNorm"
  bottom: "resConv8_2_branch2c"
  top: "resConv8_2_branch2c"
  param {
    lr_mult: 0.0
    decay_mult: 0.0
  }
  param {
    lr_mult: 0.0
    decay_mult: 0.0
  }
  param {
    lr_mult: 0.0
    decay_mult: 0.0
  }
  batch_norm_param {
    use_global_stats: false
    eps: 0.0010000000475
  }
}
layer {
  name: "scaleConv8_2_branch2c"
  type: "Scale"
  bottom: "resConv8_2_branch2c"
  top: "resConv8_2_branch2c"
  param {
    lr_mult: 1.0
    decay_mult: 0.0
  }
  param {
    lr_mult: 1.0
    decay_mult: 0.0
  }
  scale_param {
    filler {
      type: "constant"
      value: 1.0
    }
    bias_term: true
    bias_filler {
      type: "constant"
      value: 0.0
    }
  }
}
layer {
  name: "resConv8_2"
  type: "Eltwise"
  bottom: "resConv8_2_branch1"
  bottom: "resConv8_2_branch2c"
  top: "resConv8_2"
}
layer {
  name: "resConv8_2_relu"
  type: "ReLU"
  bottom: "resConv8_2"
  top: "resConv8_2"
}
layer {
  name: "resConv8_2_mbox_loc"
  type: "Convolution"
  bottom: "resConv8_2"
  top: "resConv8_2_mbox_loc"
  param {
    lr_mult: 1.0
    decay_mult: 1.0
  }
  param {
    lr_mult: 2.0
    decay_mult: 0.0
  }
  convolution_param {
    num_output: 204
    pad: 1
    kernel_size: 3
    stride: 1
    weight_filler {
      type: "xavier"
    }
    bias_filler {
      type: "constant"
      value: 0.0
    }
  }
}
layer {
  name: "resConv8_2_mbox_loc_perm"
  type: "Permute"
  bottom: "resConv8_2_mbox_loc"
  top: "resConv8_2_mbox_loc_perm"
  permute_param {
    order: 0
    order: 2
    order: 3
    order: 1
  }
}
layer {
  name: "resConv8_2_mbox_loc_flat"
  type: "Flatten"
  bottom: "resConv8_2_mbox_loc_perm"
  top: "resConv8_2_mbox_loc_flat"
  flatten_param {
    axis: 1
  }
}
layer {
  name: "resConv8_2_mbox_conf"
  type: "Convolution"
  bottom: "resConv8_2"
  top: "resConv8_2_mbox_conf"
  param {
    lr_mult: 1.0
    decay_mult: 1.0
  }
  param {
    lr_mult: 2.0
    decay_mult: 0.0
  }
  convolution_param {
    num_output: 102
    pad: 1
    kernel_size: 3
    stride: 1
    weight_filler {
      type: "xavier"
    }
    bias_filler {
      type: "constant"
      value: 0.0
    }
  }
}
layer {
  name: "resConv8_2_mbox_conf_perm"
  type: "Permute"
  bottom: "resConv8_2_mbox_conf"
  top: "resConv8_2_mbox_conf_perm"
  permute_param {
    order: 0
    order: 2
    order: 3
    order: 1
  }
}
layer {
  name: "resConv8_2_mbox_conf_flat"
  type: "Flatten"
  bottom: "resConv8_2_mbox_conf_perm"
  top: "resConv8_2_mbox_conf_flat"
  flatten_param {
    axis: 1
  }
}
layer {
  name: "resConv8_2_mbox_priorbox"
  type: "PriorBox"
  bottom: "resConv8_2"
  bottom: "data"
  top: "resConv8_2_mbox_priorbox"
  prior_box_param {
    min_size: 179.199996948
    min_size: 204.800003052
    min_size: 230.399993896
    aspect_ratio: 0.5
    aspect_ratio: 2.0
    aspect_ratio: 3.0
    aspect_ratio: 4.0
    aspect_ratio: 5.0
    aspect_ratio: 7.0
    aspect_ratio: 9.0
    aspect_ratio: 11.0
    flip: true
    clip: false
    variance: 0.10000000149
    variance: 0.10000000149
    variance: 0.20000000298
    variance: 0.20000000298
    step: 85.3333358765
    offset: 0.5
  }
}
layer {
  name: "resConv9_2_branch1"
  type: "Convolution"
  bottom: "Conv9_2"
  top: "resConv9_2_branch1"
  param {
    lr_mult: 1.0
    decay_mult: 1.0
  }
  convolution_param {
    num_output: 512
    bias_term: false
    pad: 0
    kernel_size: 1
    stride: 1
    weight_filler {
      type: "gaussian"
      std: 0.00999999977648
    }
  }
}
layer {
  name: "bnConv9_2_branch1"
  type: "BatchNorm"
  bottom: "resConv9_2_branch1"
  top: "resConv9_2_branch1"
  param {
    lr_mult: 0.0
    decay_mult: 0.0
  }
  param {
    lr_mult: 0.0
    decay_mult: 0.0
  }
  param {
    lr_mult: 0.0
    decay_mult: 0.0
  }
  batch_norm_param {
    use_global_stats: false
    eps: 0.0010000000475
  }
}
layer {
  name: "scaleConv9_2_branch1"
  type: "Scale"
  bottom: "resConv9_2_branch1"
  top: "resConv9_2_branch1"
  param {
    lr_mult: 1.0
    decay_mult: 0.0
  }
  param {
    lr_mult: 1.0
    decay_mult: 0.0
  }
  scale_param {
    filler {
      type: "constant"
      value: 1.0
    }
    bias_term: true
    bias_filler {
      type: "constant"
      value: 0.0
    }
  }
}
layer {
  name: "resConv9_2_branch2a"
  type: "Convolution"
  bottom: "Conv9_2"
  top: "resConv9_2_branch2a"
  param {
    lr_mult: 1.0
    decay_mult: 1.0
  }
  convolution_param {
    num_output: 256
    bias_term: false
    pad: 0
    kernel_size: 1
    stride: 1
    weight_filler {
      type: "gaussian"
      std: 0.00999999977648
    }
  }
}
layer {
  name: "bnConv9_2_branch2a"
  type: "BatchNorm"
  bottom: "resConv9_2_branch2a"
  top: "resConv9_2_branch2a"
  param {
    lr_mult: 0.0
    decay_mult: 0.0
  }
  param {
    lr_mult: 0.0
    decay_mult: 0.0
  }
  param {
    lr_mult: 0.0
    decay_mult: 0.0
  }
  batch_norm_param {
    use_global_stats: false
    eps: 0.0010000000475
  }
}
layer {
  name: "scaleConv9_2_branch2a"
  type: "Scale"
  bottom: "resConv9_2_branch2a"
  top: "resConv9_2_branch2a"
  param {
    lr_mult: 1.0
    decay_mult: 0.0
  }
  param {
    lr_mult: 1.0
    decay_mult: 0.0
  }
  scale_param {
    filler {
      type: "constant"
      value: 1.0
    }
    bias_term: true
    bias_filler {
      type: "constant"
      value: 0.0
    }
  }
}
layer {
  name: "resConv9_2_branch2a_relu"
  type: "ReLU"
  bottom: "resConv9_2_branch2a"
  top: "resConv9_2_branch2a"
}
layer {
  name: "resConv9_2_branch2b"
  type: "Convolution"
  bottom: "resConv9_2_branch2a"
  top: "resConv9_2_branch2b"
  param {
    lr_mult: 1.0
    decay_mult: 1.0
  }
  convolution_param {
    num_output: 256
    bias_term: false
    pad: 1
    kernel_size: 3
    stride: 1
    weight_filler {
      type: "gaussian"
      std: 0.00999999977648
    }
  }
}
layer {
  name: "bnConv9_2_branch2b"
  type: "BatchNorm"
  bottom: "resConv9_2_branch2b"
  top: "resConv9_2_branch2b"
  param {
    lr_mult: 0.0
    decay_mult: 0.0
  }
  param {
    lr_mult: 0.0
    decay_mult: 0.0
  }
  param {
    lr_mult: 0.0
    decay_mult: 0.0
  }
  batch_norm_param {
    use_global_stats: false
    eps: 0.0010000000475
  }
}
layer {
  name: "scaleConv9_2_branch2b"
  type: "Scale"
  bottom: "resConv9_2_branch2b"
  top: "resConv9_2_branch2b"
  param {
    lr_mult: 1.0
    decay_mult: 0.0
  }
  param {
    lr_mult: 1.0
    decay_mult: 0.0
  }
  scale_param {
    filler {
      type: "constant"
      value: 1.0
    }
    bias_term: true
    bias_filler {
      type: "constant"
      value: 0.0
    }
  }
}
layer {
  name: "resConv9_2_branch2b_relu"
  type: "ReLU"
  bottom: "resConv9_2_branch2b"
  top: "resConv9_2_branch2b"
}
layer {
  name: "resConv9_2_branch2c"
  type: "Convolution"
  bottom: "resConv9_2_branch2b"
  top: "resConv9_2_branch2c"
  param {
    lr_mult: 1.0
    decay_mult: 1.0
  }
  convolution_param {
    num_output: 512
    bias_term: false
    pad: 0
    kernel_size: 1
    stride: 1
    weight_filler {
      type: "gaussian"
      std: 0.00999999977648
    }
  }
}
layer {
  name: "bnConv9_2_branch2c"
  type: "BatchNorm"
  bottom: "resConv9_2_branch2c"
  top: "resConv9_2_branch2c"
  param {
    lr_mult: 0.0
    decay_mult: 0.0
  }
  param {
    lr_mult: 0.0
    decay_mult: 0.0
  }
  param {
    lr_mult: 0.0
    decay_mult: 0.0
  }
  batch_norm_param {
    use_global_stats: false
    eps: 0.0010000000475
  }
}
layer {
  name: "scaleConv9_2_branch2c"
  type: "Scale"
  bottom: "resConv9_2_branch2c"
  top: "resConv9_2_branch2c"
  param {
    lr_mult: 1.0
    decay_mult: 0.0
  }
  param {
    lr_mult: 1.0
    decay_mult: 0.0
  }
  scale_param {
    filler {
      type: "constant"
      value: 1.0
    }
    bias_term: true
    bias_filler {
      type: "constant"
      value: 0.0
    }
  }
}
layer {
  name: "resConv9_2"
  type: "Eltwise"
  bottom: "resConv9_2_branch1"
  bottom: "resConv9_2_branch2c"
  top: "resConv9_2"
}
layer {
  name: "resConv9_2_relu"
  type: "ReLU"
  bottom: "resConv9_2"
  top: "resConv9_2"
}
layer {
  name: "resConv9_2_mbox_loc"
  type: "Convolution"
  bottom: "resConv9_2"
  top: "resConv9_2_mbox_loc"
  param {
    lr_mult: 1.0
    decay_mult: 1.0
  }
  param {
    lr_mult: 2.0
    decay_mult: 0.0
  }
  convolution_param {
    num_output: 204
    pad: 1
    kernel_size: 3
    stride: 1
    weight_filler {
      type: "xavier"
    }
    bias_filler {
      type: "constant"
      value: 0.0
    }
  }
}
layer {
  name: "resConv9_2_mbox_loc_perm"
  type: "Permute"
  bottom: "resConv9_2_mbox_loc"
  top: "resConv9_2_mbox_loc_perm"
  permute_param {
    order: 0
    order: 2
    order: 3
    order: 1
  }
}
layer {
  name: "resConv9_2_mbox_loc_flat"
  type: "Flatten"
  bottom: "resConv9_2_mbox_loc_perm"
  top: "resConv9_2_mbox_loc_flat"
  flatten_param {
    axis: 1
  }
}
layer {
  name: "resConv9_2_mbox_conf"
  type: "Convolution"
  bottom: "resConv9_2"
  top: "resConv9_2_mbox_conf"
  param {
    lr_mult: 1.0
    decay_mult: 1.0
  }
  param {
    lr_mult: 2.0
    decay_mult: 0.0
  }
  convolution_param {
    num_output: 102
    pad: 1
    kernel_size: 3
    stride: 1
    weight_filler {
      type: "xavier"
    }
    bias_filler {
      type: "constant"
      value: 0.0
    }
  }
}
layer {
  name: "resConv9_2_mbox_conf_perm"
  type: "Permute"
  bottom: "resConv9_2_mbox_conf"
  top: "resConv9_2_mbox_conf_perm"
  permute_param {
    order: 0
    order: 2
    order: 3
    order: 1
  }
}
layer {
  name: "resConv9_2_mbox_conf_flat"
  type: "Flatten"
  bottom: "resConv9_2_mbox_conf_perm"
  top: "resConv9_2_mbox_conf_flat"
  flatten_param {
    axis: 1
  }
}
layer {
  name: "resConv9_2_mbox_priorbox"
  type: "PriorBox"
  bottom: "resConv9_2"
  bottom: "data"
  top: "resConv9_2_mbox_priorbox"
  prior_box_param {
    min_size: 256.0
    min_size: 281.600006104
    min_size: 307.200012207
    aspect_ratio: 0.5
    aspect_ratio: 2.0
    aspect_ratio: 3.0
    aspect_ratio: 4.0
    aspect_ratio: 5.0
    aspect_ratio: 7.0
    aspect_ratio: 9.0
    aspect_ratio: 11.0
    flip: true
    clip: false
    variance: 0.10000000149
    variance: 0.10000000149
    variance: 0.20000000298
    variance: 0.20000000298
    step: 128.0
    offset: 0.5
  }
}
layer {
  name: "resConv10_2_branch1"
  type: "Convolution"
  bottom: "Conv10_2"
  top: "resConv10_2_branch1"
  param {
    lr_mult: 1.0
    decay_mult: 1.0
  }
  convolution_param {
    num_output: 512
    bias_term: false
    pad: 0
    kernel_size: 1
    stride: 1
    weight_filler {
      type: "gaussian"
      std: 0.00999999977648
    }
  }
}
layer {
  name: "bnConv10_2_branch1"
  type: "BatchNorm"
  bottom: "resConv10_2_branch1"
  top: "resConv10_2_branch1"
  param {
    lr_mult: 0.0
    decay_mult: 0.0
  }
  param {
    lr_mult: 0.0
    decay_mult: 0.0
  }
  param {
    lr_mult: 0.0
    decay_mult: 0.0
  }
  batch_norm_param {
    use_global_stats: false
    eps: 0.0010000000475
  }
}
layer {
  name: "scaleConv10_2_branch1"
  type: "Scale"
  bottom: "resConv10_2_branch1"
  top: "resConv10_2_branch1"
  param {
    lr_mult: 1.0
    decay_mult: 0.0
  }
  param {
    lr_mult: 1.0
    decay_mult: 0.0
  }
  scale_param {
    filler {
      type: "constant"
      value: 1.0
    }
    bias_term: true
    bias_filler {
      type: "constant"
      value: 0.0
    }
  }
}
layer {
  name: "resConv10_2_branch2a"
  type: "Convolution"
  bottom: "Conv10_2"
  top: "resConv10_2_branch2a"
  param {
    lr_mult: 1.0
    decay_mult: 1.0
  }
  convolution_param {
    num_output: 256
    bias_term: false
    pad: 0
    kernel_size: 1
    stride: 1
    weight_filler {
      type: "gaussian"
      std: 0.00999999977648
    }
  }
}
layer {
  name: "bnConv10_2_branch2a"
  type: "BatchNorm"
  bottom: "resConv10_2_branch2a"
  top: "resConv10_2_branch2a"
  param {
    lr_mult: 0.0
    decay_mult: 0.0
  }
  param {
    lr_mult: 0.0
    decay_mult: 0.0
  }
  param {
    lr_mult: 0.0
    decay_mult: 0.0
  }
  batch_norm_param {
    use_global_stats: false
    eps: 0.0010000000475
  }
}
layer {
  name: "scaleConv10_2_branch2a"
  type: "Scale"
  bottom: "resConv10_2_branch2a"
  top: "resConv10_2_branch2a"
  param {
    lr_mult: 1.0
    decay_mult: 0.0
  }
  param {
    lr_mult: 1.0
    decay_mult: 0.0
  }
  scale_param {
    filler {
      type: "constant"
      value: 1.0
    }
    bias_term: true
    bias_filler {
      type: "constant"
      value: 0.0
    }
  }
}
layer {
  name: "resConv10_2_branch2a_relu"
  type: "ReLU"
  bottom: "resConv10_2_branch2a"
  top: "resConv10_2_branch2a"
}
layer {
  name: "resConv10_2_branch2b"
  type: "Convolution"
  bottom: "resConv10_2_branch2a"
  top: "resConv10_2_branch2b"
  param {
    lr_mult: 1.0
    decay_mult: 1.0
  }
  convolution_param {
    num_output: 256
    bias_term: false
    pad: 1
    kernel_size: 3
    stride: 1
    weight_filler {
      type: "gaussian"
      std: 0.00999999977648
    }
  }
}
layer {
  name: "bnConv10_2_branch2b"
  type: "BatchNorm"
  bottom: "resConv10_2_branch2b"
  top: "resConv10_2_branch2b"
  param {
    lr_mult: 0.0
    decay_mult: 0.0
  }
  param {
    lr_mult: 0.0
    decay_mult: 0.0
  }
  param {
    lr_mult: 0.0
    decay_mult: 0.0
  }
  batch_norm_param {
    use_global_stats: false
    eps: 0.0010000000475
  }
}
layer {
  name: "scaleConv10_2_branch2b"
  type: "Scale"
  bottom: "resConv10_2_branch2b"
  top: "resConv10_2_branch2b"
  param {
    lr_mult: 1.0
    decay_mult: 0.0
  }
  param {
    lr_mult: 1.0
    decay_mult: 0.0
  }
  scale_param {
    filler {
      type: "constant"
      value: 1.0
    }
    bias_term: true
    bias_filler {
      type: "constant"
      value: 0.0
    }
  }
}
layer {
  name: "resConv10_2_branch2b_relu"
  type: "ReLU"
  bottom: "resConv10_2_branch2b"
  top: "resConv10_2_branch2b"
}
layer {
  name: "resConv10_2_branch2c"
  type: "Convolution"
  bottom: "resConv10_2_branch2b"
  top: "resConv10_2_branch2c"
  param {
    lr_mult: 1.0
    decay_mult: 1.0
  }
  convolution_param {
    num_output: 512
    bias_term: false
    pad: 0
    kernel_size: 1
    stride: 1
    weight_filler {
      type: "gaussian"
      std: 0.00999999977648
    }
  }
}
layer {
  name: "bnConv10_2_branch2c"
  type: "BatchNorm"
  bottom: "resConv10_2_branch2c"
  top: "resConv10_2_branch2c"
  param {
    lr_mult: 0.0
    decay_mult: 0.0
  }
  param {
    lr_mult: 0.0
    decay_mult: 0.0
  }
  param {
    lr_mult: 0.0
    decay_mult: 0.0
  }
  batch_norm_param {
    use_global_stats: false
    eps: 0.0010000000475
  }
}
layer {
  name: "scaleConv10_2_branch2c"
  type: "Scale"
  bottom: "resConv10_2_branch2c"
  top: "resConv10_2_branch2c"
  param {
    lr_mult: 1.0
    decay_mult: 0.0
  }
  param {
    lr_mult: 1.0
    decay_mult: 0.0
  }
  scale_param {
    filler {
      type: "constant"
      value: 1.0
    }
    bias_term: true
    bias_filler {
      type: "constant"
      value: 0.0
    }
  }
}
layer {
  name: "resConv10_2"
  type: "Eltwise"
  bottom: "resConv10_2_branch1"
  bottom: "resConv10_2_branch2c"
  top: "resConv10_2"
}
layer {
  name: "resConv10_2_relu"
  type: "ReLU"
  bottom: "resConv10_2"
  top: "resConv10_2"
}
layer {
  name: "resConv10_2_mbox_loc"
  type: "Convolution"
  bottom: "resConv10_2"
  top: "resConv10_2_mbox_loc"
  param {
    lr_mult: 1.0
    decay_mult: 1.0
  }
  param {
    lr_mult: 2.0
    decay_mult: 0.0
  }
  convolution_param {
    num_output: 204
    pad: 1
    kernel_size: 3
    stride: 1
    weight_filler {
      type: "xavier"
    }
    bias_filler {
      type: "constant"
      value: 0.0
    }
  }
}
layer {
  name: "resConv10_2_mbox_loc_perm"
  type: "Permute"
  bottom: "resConv10_2_mbox_loc"
  top: "resConv10_2_mbox_loc_perm"
  permute_param {
    order: 0
    order: 2
    order: 3
    order: 1
  }
}
layer {
  name: "resConv10_2_mbox_loc_flat"
  type: "Flatten"
  bottom: "resConv10_2_mbox_loc_perm"
  top: "resConv10_2_mbox_loc_flat"
  flatten_param {
    axis: 1
  }
}
layer {
  name: "resConv10_2_mbox_conf"
  type: "Convolution"
  bottom: "resConv10_2"
  top: "resConv10_2_mbox_conf"
  param {
    lr_mult: 1.0
    decay_mult: 1.0
  }
  param {
    lr_mult: 2.0
    decay_mult: 0.0
  }
  convolution_param {
    num_output: 102
    pad: 1
    kernel_size: 3
    stride: 1
    weight_filler {
      type: "xavier"
    }
    bias_filler {
      type: "constant"
      value: 0.0
    }
  }
}
layer {
  name: "resConv10_2_mbox_conf_perm"
  type: "Permute"
  bottom: "resConv10_2_mbox_conf"
  top: "resConv10_2_mbox_conf_perm"
  permute_param {
    order: 0
    order: 2
    order: 3
    order: 1
  }
}
layer {
  name: "resConv10_2_mbox_conf_flat"
  type: "Flatten"
  bottom: "resConv10_2_mbox_conf_perm"
  top: "resConv10_2_mbox_conf_flat"
  flatten_param {
    axis: 1
  }
}
layer {
  name: "resConv10_2_mbox_priorbox"
  type: "PriorBox"
  bottom: "resConv10_2"
  bottom: "data"
  top: "resConv10_2_mbox_priorbox"
  prior_box_param {
    min_size: 332.799987793
    min_size: 358.399993896
    min_size: 384.0
    aspect_ratio: 0.5
    aspect_ratio: 2.0
    aspect_ratio: 3.0
    aspect_ratio: 4.0
    aspect_ratio: 5.0
    aspect_ratio: 7.0
    aspect_ratio: 9.0
    aspect_ratio: 11.0
    flip: true
    clip: false
    variance: 0.10000000149
    variance: 0.10000000149
    variance: 0.20000000298
    variance: 0.20000000298
    step: 256.0
    offset: 0.5
  }
}
layer {
  name: "mbox_loc"
  type: "Concat"
  bottom: "resconv4_3_masked_norm_mbox_loc_flat"
  bottom: "resfc7_masked_mbox_loc_flat"
  bottom: "resConv6_2_masked_mbox_loc_flat"
  bottom: "resConv7_2_mbox_loc_flat"
  bottom: "resConv8_2_mbox_loc_flat"
  bottom: "resConv9_2_mbox_loc_flat"
  bottom: "resConv10_2_mbox_loc_flat"
  top: "mbox_loc"
  concat_param {
    axis: 1
  }
}
layer {
  name: "mbox_conf"
  type: "Concat"
  bottom: "resconv4_3_masked_norm_mbox_conf_flat"
  bottom: "resfc7_masked_mbox_conf_flat"
  bottom: "resConv6_2_masked_mbox_conf_flat"
  bottom: "resConv7_2_mbox_conf_flat"
  bottom: "resConv8_2_mbox_conf_flat"
  bottom: "resConv9_2_mbox_conf_flat"
  bottom: "resConv10_2_mbox_conf_flat"
  top: "mbox_conf"
  concat_param {
    axis: 1
  }
}
layer {
  name: "mbox_priorbox"
  type: "Concat"
  bottom: "resconv4_3_masked_norm_mbox_priorbox"
  bottom: "resfc7_masked_mbox_priorbox"
  bottom: "resConv6_2_masked_mbox_priorbox"
  bottom: "resConv7_2_mbox_priorbox"
  bottom: "resConv8_2_mbox_priorbox"
  bottom: "resConv9_2_mbox_priorbox"
  bottom: "resConv10_2_mbox_priorbox"
  top: "mbox_priorbox"
  concat_param {
    axis: 2
  }
}
layer {
  name: "mbox_conf_reshape"
  type: "Reshape"
  bottom: "mbox_conf"
  top: "mbox_conf_reshape"
  reshape_param {
    shape {
      dim: 0
      dim: -1
      dim: 2
    }
  }
}
layer {
  name: "mbox_conf_softmax"
  type: "Softmax"
  bottom: "mbox_conf_reshape"
  top: "mbox_conf_softmax"
  softmax_param {
    axis: 2
  }
}
layer {
  name: "mbox_conf_flatten"
  type: "Flatten"
  bottom: "mbox_conf_softmax"
  top: "mbox_conf_flatten"
  flatten_param {
    axis: 1
  }
}
layer {
  name: "detection_out"
  type: "DetectionOutput"
  bottom: "mbox_loc"
  bottom: "mbox_conf_flatten"
  bottom: "mbox_priorbox"
  top: "detection_out"
  include {
    phase: TEST
  }
  detection_output_param {
    num_classes: 2
    share_location: true
    background_label_id: 0
    nms_param {
      nms_threshold: 0.3
      top_k: 1000
    }
    save_output_param {
      output_directory: ""
      output_name_prefix: "comp4_det_test_"
      output_format: "VOC"
      label_map_file: "examples/text/labelmap_text.prototxt"
      name_size_file: "examples/text/val_name_size.txt"
      num_test_image: 3000
    }
    code_type: CENTER_SIZE
    keep_top_k: -1
    confidence_threshold: 0.01
  }
}
